<?xml version="1.0" ?>
<net batch="1" name="frozen_inference_graph" version="6">
	<layers>
		<layer id="0" name="image_tensor" precision="FP32" type="Input">
			<output>
				<port id="0">
					<dim>1</dim>
					<dim>3</dim>
					<dim>300</dim>
					<dim>300</dim>
				</port>
			</output>
		</layer>
		<layer id="1" name="Preprocessor/mul/fused_power" precision="FP32" type="Power">
			<data power="1" scale="0.007843137718737125" shift="-1.0"/>
			<input>
				<port id="0">
					<dim>1</dim>
					<dim>3</dim>
					<dim>300</dim>
					<dim>300</dim>
				</port>
			</input>
			<output>
				<port id="1">
					<dim>1</dim>
					<dim>3</dim>
					<dim>300</dim>
					<dim>300</dim>
				</port>
			</output>
		</layer>
		<layer id="2" name="FeatureExtractor/MobilenetV2/Conv/BatchNorm/batchnorm/mul_1" precision="FP32" type="Convolution">
			<data auto_pad="same_upper" dilations="1,1" group="1" kernel="3,3" output="32" pads_begin="0,0" pads_end="1,1" strides="2,2"/>
			<input>
				<port id="0">
					<dim>1</dim>
					<dim>3</dim>
					<dim>300</dim>
					<dim>300</dim>
				</port>
			</input>
			<output>
				<port id="3">
					<dim>1</dim>
					<dim>32</dim>
					<dim>150</dim>
					<dim>150</dim>
				</port>
			</output>
			<blobs>
				<weights offset="0" size="3456"/>
				<biases offset="3456" size="128"/>
			</blobs>
		</layer>
		<layer id="3" name="FeatureExtractor/MobilenetV2/Conv/Relu6" precision="FP32" type="Clamp">
			<data max="6" min="0"/>
			<input>
				<port id="0">
					<dim>1</dim>
					<dim>32</dim>
					<dim>150</dim>
					<dim>150</dim>
				</port>
			</input>
			<output>
				<port id="1">
					<dim>1</dim>
					<dim>32</dim>
					<dim>150</dim>
					<dim>150</dim>
				</port>
			</output>
		</layer>
		<layer id="4" name="FeatureExtractor/MobilenetV2/expanded_conv/depthwise/depthwise" precision="FP32" type="Convolution">
			<data auto_pad="same_upper" dilations="1,1" group="32" kernel="3,3" output="32" pads_begin="1,1" pads_end="1,1" strides="1,1"/>
			<input>
				<port id="0">
					<dim>1</dim>
					<dim>32</dim>
					<dim>150</dim>
					<dim>150</dim>
				</port>
			</input>
			<output>
				<port id="3">
					<dim>1</dim>
					<dim>32</dim>
					<dim>150</dim>
					<dim>150</dim>
				</port>
			</output>
			<blobs>
				<weights offset="3584" size="1152"/>
				<biases offset="4736" size="128"/>
			</blobs>
		</layer>
		<layer id="5" name="FeatureExtractor/MobilenetV2/expanded_conv/depthwise/Relu6" precision="FP32" type="Clamp">
			<data max="6" min="0"/>
			<input>
				<port id="0">
					<dim>1</dim>
					<dim>32</dim>
					<dim>150</dim>
					<dim>150</dim>
				</port>
			</input>
			<output>
				<port id="1">
					<dim>1</dim>
					<dim>32</dim>
					<dim>150</dim>
					<dim>150</dim>
				</port>
			</output>
		</layer>
		<layer id="6" name="FeatureExtractor/MobilenetV2/expanded_conv/project/BatchNorm/batchnorm/mul_1" precision="FP32" type="Convolution">
			<data auto_pad="same_upper" dilations="1,1" group="1" kernel="1,1" output="16" pads_begin="0,0" pads_end="0,0" strides="1,1"/>
			<input>
				<port id="0">
					<dim>1</dim>
					<dim>32</dim>
					<dim>150</dim>
					<dim>150</dim>
				</port>
			</input>
			<output>
				<port id="3">
					<dim>1</dim>
					<dim>16</dim>
					<dim>150</dim>
					<dim>150</dim>
				</port>
			</output>
			<blobs>
				<weights offset="4864" size="2048"/>
				<biases offset="6912" size="64"/>
			</blobs>
		</layer>
		<layer id="7" name="FeatureExtractor/MobilenetV2/expanded_conv_1/expand/BatchNorm/batchnorm/mul_1" precision="FP32" type="Convolution">
			<data auto_pad="same_upper" dilations="1,1" group="1" kernel="1,1" output="96" pads_begin="0,0" pads_end="0,0" strides="1,1"/>
			<input>
				<port id="0">
					<dim>1</dim>
					<dim>16</dim>
					<dim>150</dim>
					<dim>150</dim>
				</port>
			</input>
			<output>
				<port id="3">
					<dim>1</dim>
					<dim>96</dim>
					<dim>150</dim>
					<dim>150</dim>
				</port>
			</output>
			<blobs>
				<weights offset="6976" size="6144"/>
				<biases offset="13120" size="384"/>
			</blobs>
		</layer>
		<layer id="8" name="FeatureExtractor/MobilenetV2/expanded_conv_1/expand/Relu6" precision="FP32" type="Clamp">
			<data max="6" min="0"/>
			<input>
				<port id="0">
					<dim>1</dim>
					<dim>96</dim>
					<dim>150</dim>
					<dim>150</dim>
				</port>
			</input>
			<output>
				<port id="1">
					<dim>1</dim>
					<dim>96</dim>
					<dim>150</dim>
					<dim>150</dim>
				</port>
			</output>
		</layer>
		<layer id="9" name="FeatureExtractor/MobilenetV2/expanded_conv_1/depthwise/depthwise" precision="FP32" type="Convolution">
			<data auto_pad="same_upper" dilations="1,1" group="96" kernel="3,3" output="96" pads_begin="0,0" pads_end="1,1" strides="2,2"/>
			<input>
				<port id="0">
					<dim>1</dim>
					<dim>96</dim>
					<dim>150</dim>
					<dim>150</dim>
				</port>
			</input>
			<output>
				<port id="3">
					<dim>1</dim>
					<dim>96</dim>
					<dim>75</dim>
					<dim>75</dim>
				</port>
			</output>
			<blobs>
				<weights offset="13504" size="3456"/>
				<biases offset="16960" size="384"/>
			</blobs>
		</layer>
		<layer id="10" name="FeatureExtractor/MobilenetV2/expanded_conv_1/depthwise/Relu6" precision="FP32" type="Clamp">
			<data max="6" min="0"/>
			<input>
				<port id="0">
					<dim>1</dim>
					<dim>96</dim>
					<dim>75</dim>
					<dim>75</dim>
				</port>
			</input>
			<output>
				<port id="1">
					<dim>1</dim>
					<dim>96</dim>
					<dim>75</dim>
					<dim>75</dim>
				</port>
			</output>
		</layer>
		<layer id="11" name="FeatureExtractor/MobilenetV2/expanded_conv_1/project/BatchNorm/batchnorm/mul_1" precision="FP32" type="Convolution">
			<data auto_pad="same_upper" dilations="1,1" group="1" kernel="1,1" output="24" pads_begin="0,0" pads_end="0,0" strides="1,1"/>
			<input>
				<port id="0">
					<dim>1</dim>
					<dim>96</dim>
					<dim>75</dim>
					<dim>75</dim>
				</port>
			</input>
			<output>
				<port id="3">
					<dim>1</dim>
					<dim>24</dim>
					<dim>75</dim>
					<dim>75</dim>
				</port>
			</output>
			<blobs>
				<weights offset="17344" size="9216"/>
				<biases offset="26560" size="96"/>
			</blobs>
		</layer>
		<layer id="12" name="FeatureExtractor/MobilenetV2/expanded_conv_2/expand/BatchNorm/batchnorm/mul_1" precision="FP32" type="Convolution">
			<data auto_pad="same_upper" dilations="1,1" group="1" kernel="1,1" output="144" pads_begin="0,0" pads_end="0,0" strides="1,1"/>
			<input>
				<port id="0">
					<dim>1</dim>
					<dim>24</dim>
					<dim>75</dim>
					<dim>75</dim>
				</port>
			</input>
			<output>
				<port id="3">
					<dim>1</dim>
					<dim>144</dim>
					<dim>75</dim>
					<dim>75</dim>
				</port>
			</output>
			<blobs>
				<weights offset="26656" size="13824"/>
				<biases offset="40480" size="576"/>
			</blobs>
		</layer>
		<layer id="13" name="FeatureExtractor/MobilenetV2/expanded_conv_2/expand/Relu6" precision="FP32" type="Clamp">
			<data max="6" min="0"/>
			<input>
				<port id="0">
					<dim>1</dim>
					<dim>144</dim>
					<dim>75</dim>
					<dim>75</dim>
				</port>
			</input>
			<output>
				<port id="1">
					<dim>1</dim>
					<dim>144</dim>
					<dim>75</dim>
					<dim>75</dim>
				</port>
			</output>
		</layer>
		<layer id="14" name="FeatureExtractor/MobilenetV2/expanded_conv_2/depthwise/depthwise" precision="FP32" type="Convolution">
			<data auto_pad="same_upper" dilations="1,1" group="144" kernel="3,3" output="144" pads_begin="1,1" pads_end="1,1" strides="1,1"/>
			<input>
				<port id="0">
					<dim>1</dim>
					<dim>144</dim>
					<dim>75</dim>
					<dim>75</dim>
				</port>
			</input>
			<output>
				<port id="3">
					<dim>1</dim>
					<dim>144</dim>
					<dim>75</dim>
					<dim>75</dim>
				</port>
			</output>
			<blobs>
				<weights offset="41056" size="5184"/>
				<biases offset="46240" size="576"/>
			</blobs>
		</layer>
		<layer id="15" name="FeatureExtractor/MobilenetV2/expanded_conv_2/depthwise/Relu6" precision="FP32" type="Clamp">
			<data max="6" min="0"/>
			<input>
				<port id="0">
					<dim>1</dim>
					<dim>144</dim>
					<dim>75</dim>
					<dim>75</dim>
				</port>
			</input>
			<output>
				<port id="1">
					<dim>1</dim>
					<dim>144</dim>
					<dim>75</dim>
					<dim>75</dim>
				</port>
			</output>
		</layer>
		<layer id="16" name="FeatureExtractor/MobilenetV2/expanded_conv_2/project/BatchNorm/batchnorm/mul_1" precision="FP32" type="Convolution">
			<data auto_pad="same_upper" dilations="1,1" group="1" kernel="1,1" output="24" pads_begin="0,0" pads_end="0,0" strides="1,1"/>
			<input>
				<port id="0">
					<dim>1</dim>
					<dim>144</dim>
					<dim>75</dim>
					<dim>75</dim>
				</port>
			</input>
			<output>
				<port id="3">
					<dim>1</dim>
					<dim>24</dim>
					<dim>75</dim>
					<dim>75</dim>
				</port>
			</output>
			<blobs>
				<weights offset="46816" size="13824"/>
				<biases offset="60640" size="96"/>
			</blobs>
		</layer>
		<layer id="17" name="FeatureExtractor/MobilenetV2/expanded_conv_2/add" precision="FP32" type="Eltwise">
			<data operation="sum"/>
			<input>
				<port id="0">
					<dim>1</dim>
					<dim>24</dim>
					<dim>75</dim>
					<dim>75</dim>
				</port>
				<port id="1">
					<dim>1</dim>
					<dim>24</dim>
					<dim>75</dim>
					<dim>75</dim>
				</port>
			</input>
			<output>
				<port id="2">
					<dim>1</dim>
					<dim>24</dim>
					<dim>75</dim>
					<dim>75</dim>
				</port>
			</output>
		</layer>
		<layer id="18" name="FeatureExtractor/MobilenetV2/expanded_conv_3/expand/BatchNorm/batchnorm/mul_1" precision="FP32" type="Convolution">
			<data auto_pad="same_upper" dilations="1,1" group="1" kernel="1,1" output="144" pads_begin="0,0" pads_end="0,0" strides="1,1"/>
			<input>
				<port id="0">
					<dim>1</dim>
					<dim>24</dim>
					<dim>75</dim>
					<dim>75</dim>
				</port>
			</input>
			<output>
				<port id="3">
					<dim>1</dim>
					<dim>144</dim>
					<dim>75</dim>
					<dim>75</dim>
				</port>
			</output>
			<blobs>
				<weights offset="60736" size="13824"/>
				<biases offset="74560" size="576"/>
			</blobs>
		</layer>
		<layer id="19" name="FeatureExtractor/MobilenetV2/expanded_conv_3/expand/Relu6" precision="FP32" type="Clamp">
			<data max="6" min="0"/>
			<input>
				<port id="0">
					<dim>1</dim>
					<dim>144</dim>
					<dim>75</dim>
					<dim>75</dim>
				</port>
			</input>
			<output>
				<port id="1">
					<dim>1</dim>
					<dim>144</dim>
					<dim>75</dim>
					<dim>75</dim>
				</port>
			</output>
		</layer>
		<layer id="20" name="FeatureExtractor/MobilenetV2/expanded_conv_3/depthwise/depthwise" precision="FP32" type="Convolution">
			<data auto_pad="same_upper" dilations="1,1" group="144" kernel="3,3" output="144" pads_begin="1,1" pads_end="1,1" strides="2,2"/>
			<input>
				<port id="0">
					<dim>1</dim>
					<dim>144</dim>
					<dim>75</dim>
					<dim>75</dim>
				</port>
			</input>
			<output>
				<port id="3">
					<dim>1</dim>
					<dim>144</dim>
					<dim>38</dim>
					<dim>38</dim>
				</port>
			</output>
			<blobs>
				<weights offset="75136" size="5184"/>
				<biases offset="80320" size="576"/>
			</blobs>
		</layer>
		<layer id="21" name="FeatureExtractor/MobilenetV2/expanded_conv_3/depthwise/Relu6" precision="FP32" type="Clamp">
			<data max="6" min="0"/>
			<input>
				<port id="0">
					<dim>1</dim>
					<dim>144</dim>
					<dim>38</dim>
					<dim>38</dim>
				</port>
			</input>
			<output>
				<port id="1">
					<dim>1</dim>
					<dim>144</dim>
					<dim>38</dim>
					<dim>38</dim>
				</port>
			</output>
		</layer>
		<layer id="22" name="FeatureExtractor/MobilenetV2/expanded_conv_3/project/BatchNorm/batchnorm/mul_1" precision="FP32" type="Convolution">
			<data auto_pad="same_upper" dilations="1,1" group="1" kernel="1,1" output="32" pads_begin="0,0" pads_end="0,0" strides="1,1"/>
			<input>
				<port id="0">
					<dim>1</dim>
					<dim>144</dim>
					<dim>38</dim>
					<dim>38</dim>
				</port>
			</input>
			<output>
				<port id="3">
					<dim>1</dim>
					<dim>32</dim>
					<dim>38</dim>
					<dim>38</dim>
				</port>
			</output>
			<blobs>
				<weights offset="80896" size="18432"/>
				<biases offset="99328" size="128"/>
			</blobs>
		</layer>
		<layer id="23" name="FeatureExtractor/MobilenetV2/expanded_conv_4/expand/BatchNorm/batchnorm/mul_1" precision="FP32" type="Convolution">
			<data auto_pad="same_upper" dilations="1,1" group="1" kernel="1,1" output="192" pads_begin="0,0" pads_end="0,0" strides="1,1"/>
			<input>
				<port id="0">
					<dim>1</dim>
					<dim>32</dim>
					<dim>38</dim>
					<dim>38</dim>
				</port>
			</input>
			<output>
				<port id="3">
					<dim>1</dim>
					<dim>192</dim>
					<dim>38</dim>
					<dim>38</dim>
				</port>
			</output>
			<blobs>
				<weights offset="99456" size="24576"/>
				<biases offset="124032" size="768"/>
			</blobs>
		</layer>
		<layer id="24" name="FeatureExtractor/MobilenetV2/expanded_conv_4/expand/Relu6" precision="FP32" type="Clamp">
			<data max="6" min="0"/>
			<input>
				<port id="0">
					<dim>1</dim>
					<dim>192</dim>
					<dim>38</dim>
					<dim>38</dim>
				</port>
			</input>
			<output>
				<port id="1">
					<dim>1</dim>
					<dim>192</dim>
					<dim>38</dim>
					<dim>38</dim>
				</port>
			</output>
		</layer>
		<layer id="25" name="FeatureExtractor/MobilenetV2/expanded_conv_4/depthwise/depthwise" precision="FP32" type="Convolution">
			<data auto_pad="same_upper" dilations="1,1" group="192" kernel="3,3" output="192" pads_begin="1,1" pads_end="1,1" strides="1,1"/>
			<input>
				<port id="0">
					<dim>1</dim>
					<dim>192</dim>
					<dim>38</dim>
					<dim>38</dim>
				</port>
			</input>
			<output>
				<port id="3">
					<dim>1</dim>
					<dim>192</dim>
					<dim>38</dim>
					<dim>38</dim>
				</port>
			</output>
			<blobs>
				<weights offset="124800" size="6912"/>
				<biases offset="131712" size="768"/>
			</blobs>
		</layer>
		<layer id="26" name="FeatureExtractor/MobilenetV2/expanded_conv_4/depthwise/Relu6" precision="FP32" type="Clamp">
			<data max="6" min="0"/>
			<input>
				<port id="0">
					<dim>1</dim>
					<dim>192</dim>
					<dim>38</dim>
					<dim>38</dim>
				</port>
			</input>
			<output>
				<port id="1">
					<dim>1</dim>
					<dim>192</dim>
					<dim>38</dim>
					<dim>38</dim>
				</port>
			</output>
		</layer>
		<layer id="27" name="FeatureExtractor/MobilenetV2/expanded_conv_4/project/BatchNorm/batchnorm/mul_1" precision="FP32" type="Convolution">
			<data auto_pad="same_upper" dilations="1,1" group="1" kernel="1,1" output="32" pads_begin="0,0" pads_end="0,0" strides="1,1"/>
			<input>
				<port id="0">
					<dim>1</dim>
					<dim>192</dim>
					<dim>38</dim>
					<dim>38</dim>
				</port>
			</input>
			<output>
				<port id="3">
					<dim>1</dim>
					<dim>32</dim>
					<dim>38</dim>
					<dim>38</dim>
				</port>
			</output>
			<blobs>
				<weights offset="132480" size="24576"/>
				<biases offset="157056" size="128"/>
			</blobs>
		</layer>
		<layer id="28" name="FeatureExtractor/MobilenetV2/expanded_conv_4/add" precision="FP32" type="Eltwise">
			<data operation="sum"/>
			<input>
				<port id="0">
					<dim>1</dim>
					<dim>32</dim>
					<dim>38</dim>
					<dim>38</dim>
				</port>
				<port id="1">
					<dim>1</dim>
					<dim>32</dim>
					<dim>38</dim>
					<dim>38</dim>
				</port>
			</input>
			<output>
				<port id="2">
					<dim>1</dim>
					<dim>32</dim>
					<dim>38</dim>
					<dim>38</dim>
				</port>
			</output>
		</layer>
		<layer id="29" name="FeatureExtractor/MobilenetV2/expanded_conv_5/expand/BatchNorm/batchnorm/mul_1" precision="FP32" type="Convolution">
			<data auto_pad="same_upper" dilations="1,1" group="1" kernel="1,1" output="192" pads_begin="0,0" pads_end="0,0" strides="1,1"/>
			<input>
				<port id="0">
					<dim>1</dim>
					<dim>32</dim>
					<dim>38</dim>
					<dim>38</dim>
				</port>
			</input>
			<output>
				<port id="3">
					<dim>1</dim>
					<dim>192</dim>
					<dim>38</dim>
					<dim>38</dim>
				</port>
			</output>
			<blobs>
				<weights offset="157184" size="24576"/>
				<biases offset="181760" size="768"/>
			</blobs>
		</layer>
		<layer id="30" name="FeatureExtractor/MobilenetV2/expanded_conv_5/expand/Relu6" precision="FP32" type="Clamp">
			<data max="6" min="0"/>
			<input>
				<port id="0">
					<dim>1</dim>
					<dim>192</dim>
					<dim>38</dim>
					<dim>38</dim>
				</port>
			</input>
			<output>
				<port id="1">
					<dim>1</dim>
					<dim>192</dim>
					<dim>38</dim>
					<dim>38</dim>
				</port>
			</output>
		</layer>
		<layer id="31" name="FeatureExtractor/MobilenetV2/expanded_conv_5/depthwise/depthwise" precision="FP32" type="Convolution">
			<data auto_pad="same_upper" dilations="1,1" group="192" kernel="3,3" output="192" pads_begin="1,1" pads_end="1,1" strides="1,1"/>
			<input>
				<port id="0">
					<dim>1</dim>
					<dim>192</dim>
					<dim>38</dim>
					<dim>38</dim>
				</port>
			</input>
			<output>
				<port id="3">
					<dim>1</dim>
					<dim>192</dim>
					<dim>38</dim>
					<dim>38</dim>
				</port>
			</output>
			<blobs>
				<weights offset="182528" size="6912"/>
				<biases offset="189440" size="768"/>
			</blobs>
		</layer>
		<layer id="32" name="FeatureExtractor/MobilenetV2/expanded_conv_5/depthwise/Relu6" precision="FP32" type="Clamp">
			<data max="6" min="0"/>
			<input>
				<port id="0">
					<dim>1</dim>
					<dim>192</dim>
					<dim>38</dim>
					<dim>38</dim>
				</port>
			</input>
			<output>
				<port id="1">
					<dim>1</dim>
					<dim>192</dim>
					<dim>38</dim>
					<dim>38</dim>
				</port>
			</output>
		</layer>
		<layer id="33" name="FeatureExtractor/MobilenetV2/expanded_conv_5/project/BatchNorm/batchnorm/mul_1" precision="FP32" type="Convolution">
			<data auto_pad="same_upper" dilations="1,1" group="1" kernel="1,1" output="32" pads_begin="0,0" pads_end="0,0" strides="1,1"/>
			<input>
				<port id="0">
					<dim>1</dim>
					<dim>192</dim>
					<dim>38</dim>
					<dim>38</dim>
				</port>
			</input>
			<output>
				<port id="3">
					<dim>1</dim>
					<dim>32</dim>
					<dim>38</dim>
					<dim>38</dim>
				</port>
			</output>
			<blobs>
				<weights offset="190208" size="24576"/>
				<biases offset="214784" size="128"/>
			</blobs>
		</layer>
		<layer id="34" name="FeatureExtractor/MobilenetV2/expanded_conv_5/add" precision="FP32" type="Eltwise">
			<data operation="sum"/>
			<input>
				<port id="0">
					<dim>1</dim>
					<dim>32</dim>
					<dim>38</dim>
					<dim>38</dim>
				</port>
				<port id="1">
					<dim>1</dim>
					<dim>32</dim>
					<dim>38</dim>
					<dim>38</dim>
				</port>
			</input>
			<output>
				<port id="2">
					<dim>1</dim>
					<dim>32</dim>
					<dim>38</dim>
					<dim>38</dim>
				</port>
			</output>
		</layer>
		<layer id="35" name="FeatureExtractor/MobilenetV2/expanded_conv_6/expand/BatchNorm/batchnorm/mul_1" precision="FP32" type="Convolution">
			<data auto_pad="same_upper" dilations="1,1" group="1" kernel="1,1" output="192" pads_begin="0,0" pads_end="0,0" strides="1,1"/>
			<input>
				<port id="0">
					<dim>1</dim>
					<dim>32</dim>
					<dim>38</dim>
					<dim>38</dim>
				</port>
			</input>
			<output>
				<port id="3">
					<dim>1</dim>
					<dim>192</dim>
					<dim>38</dim>
					<dim>38</dim>
				</port>
			</output>
			<blobs>
				<weights offset="214912" size="24576"/>
				<biases offset="239488" size="768"/>
			</blobs>
		</layer>
		<layer id="36" name="FeatureExtractor/MobilenetV2/expanded_conv_6/expand/Relu6" precision="FP32" type="Clamp">
			<data max="6" min="0"/>
			<input>
				<port id="0">
					<dim>1</dim>
					<dim>192</dim>
					<dim>38</dim>
					<dim>38</dim>
				</port>
			</input>
			<output>
				<port id="1">
					<dim>1</dim>
					<dim>192</dim>
					<dim>38</dim>
					<dim>38</dim>
				</port>
			</output>
		</layer>
		<layer id="37" name="FeatureExtractor/MobilenetV2/expanded_conv_6/depthwise/depthwise" precision="FP32" type="Convolution">
			<data auto_pad="same_upper" dilations="1,1" group="192" kernel="3,3" output="192" pads_begin="0,0" pads_end="1,1" strides="2,2"/>
			<input>
				<port id="0">
					<dim>1</dim>
					<dim>192</dim>
					<dim>38</dim>
					<dim>38</dim>
				</port>
			</input>
			<output>
				<port id="3">
					<dim>1</dim>
					<dim>192</dim>
					<dim>19</dim>
					<dim>19</dim>
				</port>
			</output>
			<blobs>
				<weights offset="240256" size="6912"/>
				<biases offset="247168" size="768"/>
			</blobs>
		</layer>
		<layer id="38" name="FeatureExtractor/MobilenetV2/expanded_conv_6/depthwise/Relu6" precision="FP32" type="Clamp">
			<data max="6" min="0"/>
			<input>
				<port id="0">
					<dim>1</dim>
					<dim>192</dim>
					<dim>19</dim>
					<dim>19</dim>
				</port>
			</input>
			<output>
				<port id="1">
					<dim>1</dim>
					<dim>192</dim>
					<dim>19</dim>
					<dim>19</dim>
				</port>
			</output>
		</layer>
		<layer id="39" name="FeatureExtractor/MobilenetV2/expanded_conv_6/project/BatchNorm/batchnorm/mul_1" precision="FP32" type="Convolution">
			<data auto_pad="same_upper" dilations="1,1" group="1" kernel="1,1" output="64" pads_begin="0,0" pads_end="0,0" strides="1,1"/>
			<input>
				<port id="0">
					<dim>1</dim>
					<dim>192</dim>
					<dim>19</dim>
					<dim>19</dim>
				</port>
			</input>
			<output>
				<port id="3">
					<dim>1</dim>
					<dim>64</dim>
					<dim>19</dim>
					<dim>19</dim>
				</port>
			</output>
			<blobs>
				<weights offset="247936" size="49152"/>
				<biases offset="297088" size="256"/>
			</blobs>
		</layer>
		<layer id="40" name="FeatureExtractor/MobilenetV2/expanded_conv_7/expand/BatchNorm/batchnorm/mul_1" precision="FP32" type="Convolution">
			<data auto_pad="same_upper" dilations="1,1" group="1" kernel="1,1" output="384" pads_begin="0,0" pads_end="0,0" strides="1,1"/>
			<input>
				<port id="0">
					<dim>1</dim>
					<dim>64</dim>
					<dim>19</dim>
					<dim>19</dim>
				</port>
			</input>
			<output>
				<port id="3">
					<dim>1</dim>
					<dim>384</dim>
					<dim>19</dim>
					<dim>19</dim>
				</port>
			</output>
			<blobs>
				<weights offset="297344" size="98304"/>
				<biases offset="395648" size="1536"/>
			</blobs>
		</layer>
		<layer id="41" name="FeatureExtractor/MobilenetV2/expanded_conv_7/expand/Relu6" precision="FP32" type="Clamp">
			<data max="6" min="0"/>
			<input>
				<port id="0">
					<dim>1</dim>
					<dim>384</dim>
					<dim>19</dim>
					<dim>19</dim>
				</port>
			</input>
			<output>
				<port id="1">
					<dim>1</dim>
					<dim>384</dim>
					<dim>19</dim>
					<dim>19</dim>
				</port>
			</output>
		</layer>
		<layer id="42" name="FeatureExtractor/MobilenetV2/expanded_conv_7/depthwise/depthwise" precision="FP32" type="Convolution">
			<data auto_pad="same_upper" dilations="1,1" group="384" kernel="3,3" output="384" pads_begin="1,1" pads_end="1,1" strides="1,1"/>
			<input>
				<port id="0">
					<dim>1</dim>
					<dim>384</dim>
					<dim>19</dim>
					<dim>19</dim>
				</port>
			</input>
			<output>
				<port id="3">
					<dim>1</dim>
					<dim>384</dim>
					<dim>19</dim>
					<dim>19</dim>
				</port>
			</output>
			<blobs>
				<weights offset="397184" size="13824"/>
				<biases offset="411008" size="1536"/>
			</blobs>
		</layer>
		<layer id="43" name="FeatureExtractor/MobilenetV2/expanded_conv_7/depthwise/Relu6" precision="FP32" type="Clamp">
			<data max="6" min="0"/>
			<input>
				<port id="0">
					<dim>1</dim>
					<dim>384</dim>
					<dim>19</dim>
					<dim>19</dim>
				</port>
			</input>
			<output>
				<port id="1">
					<dim>1</dim>
					<dim>384</dim>
					<dim>19</dim>
					<dim>19</dim>
				</port>
			</output>
		</layer>
		<layer id="44" name="FeatureExtractor/MobilenetV2/expanded_conv_7/project/BatchNorm/batchnorm/mul_1" precision="FP32" type="Convolution">
			<data auto_pad="same_upper" dilations="1,1" group="1" kernel="1,1" output="64" pads_begin="0,0" pads_end="0,0" strides="1,1"/>
			<input>
				<port id="0">
					<dim>1</dim>
					<dim>384</dim>
					<dim>19</dim>
					<dim>19</dim>
				</port>
			</input>
			<output>
				<port id="3">
					<dim>1</dim>
					<dim>64</dim>
					<dim>19</dim>
					<dim>19</dim>
				</port>
			</output>
			<blobs>
				<weights offset="412544" size="98304"/>
				<biases offset="510848" size="256"/>
			</blobs>
		</layer>
		<layer id="45" name="FeatureExtractor/MobilenetV2/expanded_conv_7/add" precision="FP32" type="Eltwise">
			<data operation="sum"/>
			<input>
				<port id="0">
					<dim>1</dim>
					<dim>64</dim>
					<dim>19</dim>
					<dim>19</dim>
				</port>
				<port id="1">
					<dim>1</dim>
					<dim>64</dim>
					<dim>19</dim>
					<dim>19</dim>
				</port>
			</input>
			<output>
				<port id="2">
					<dim>1</dim>
					<dim>64</dim>
					<dim>19</dim>
					<dim>19</dim>
				</port>
			</output>
		</layer>
		<layer id="46" name="FeatureExtractor/MobilenetV2/expanded_conv_8/expand/BatchNorm/batchnorm/mul_1" precision="FP32" type="Convolution">
			<data auto_pad="same_upper" dilations="1,1" group="1" kernel="1,1" output="384" pads_begin="0,0" pads_end="0,0" strides="1,1"/>
			<input>
				<port id="0">
					<dim>1</dim>
					<dim>64</dim>
					<dim>19</dim>
					<dim>19</dim>
				</port>
			</input>
			<output>
				<port id="3">
					<dim>1</dim>
					<dim>384</dim>
					<dim>19</dim>
					<dim>19</dim>
				</port>
			</output>
			<blobs>
				<weights offset="511104" size="98304"/>
				<biases offset="609408" size="1536"/>
			</blobs>
		</layer>
		<layer id="47" name="FeatureExtractor/MobilenetV2/expanded_conv_8/expand/Relu6" precision="FP32" type="Clamp">
			<data max="6" min="0"/>
			<input>
				<port id="0">
					<dim>1</dim>
					<dim>384</dim>
					<dim>19</dim>
					<dim>19</dim>
				</port>
			</input>
			<output>
				<port id="1">
					<dim>1</dim>
					<dim>384</dim>
					<dim>19</dim>
					<dim>19</dim>
				</port>
			</output>
		</layer>
		<layer id="48" name="FeatureExtractor/MobilenetV2/expanded_conv_8/depthwise/depthwise" precision="FP32" type="Convolution">
			<data auto_pad="same_upper" dilations="1,1" group="384" kernel="3,3" output="384" pads_begin="1,1" pads_end="1,1" strides="1,1"/>
			<input>
				<port id="0">
					<dim>1</dim>
					<dim>384</dim>
					<dim>19</dim>
					<dim>19</dim>
				</port>
			</input>
			<output>
				<port id="3">
					<dim>1</dim>
					<dim>384</dim>
					<dim>19</dim>
					<dim>19</dim>
				</port>
			</output>
			<blobs>
				<weights offset="610944" size="13824"/>
				<biases offset="624768" size="1536"/>
			</blobs>
		</layer>
		<layer id="49" name="FeatureExtractor/MobilenetV2/expanded_conv_8/depthwise/Relu6" precision="FP32" type="Clamp">
			<data max="6" min="0"/>
			<input>
				<port id="0">
					<dim>1</dim>
					<dim>384</dim>
					<dim>19</dim>
					<dim>19</dim>
				</port>
			</input>
			<output>
				<port id="1">
					<dim>1</dim>
					<dim>384</dim>
					<dim>19</dim>
					<dim>19</dim>
				</port>
			</output>
		</layer>
		<layer id="50" name="FeatureExtractor/MobilenetV2/expanded_conv_8/project/BatchNorm/batchnorm/mul_1" precision="FP32" type="Convolution">
			<data auto_pad="same_upper" dilations="1,1" group="1" kernel="1,1" output="64" pads_begin="0,0" pads_end="0,0" strides="1,1"/>
			<input>
				<port id="0">
					<dim>1</dim>
					<dim>384</dim>
					<dim>19</dim>
					<dim>19</dim>
				</port>
			</input>
			<output>
				<port id="3">
					<dim>1</dim>
					<dim>64</dim>
					<dim>19</dim>
					<dim>19</dim>
				</port>
			</output>
			<blobs>
				<weights offset="626304" size="98304"/>
				<biases offset="724608" size="256"/>
			</blobs>
		</layer>
		<layer id="51" name="FeatureExtractor/MobilenetV2/expanded_conv_8/add" precision="FP32" type="Eltwise">
			<data operation="sum"/>
			<input>
				<port id="0">
					<dim>1</dim>
					<dim>64</dim>
					<dim>19</dim>
					<dim>19</dim>
				</port>
				<port id="1">
					<dim>1</dim>
					<dim>64</dim>
					<dim>19</dim>
					<dim>19</dim>
				</port>
			</input>
			<output>
				<port id="2">
					<dim>1</dim>
					<dim>64</dim>
					<dim>19</dim>
					<dim>19</dim>
				</port>
			</output>
		</layer>
		<layer id="52" name="FeatureExtractor/MobilenetV2/expanded_conv_9/expand/BatchNorm/batchnorm/mul_1" precision="FP32" type="Convolution">
			<data auto_pad="same_upper" dilations="1,1" group="1" kernel="1,1" output="384" pads_begin="0,0" pads_end="0,0" strides="1,1"/>
			<input>
				<port id="0">
					<dim>1</dim>
					<dim>64</dim>
					<dim>19</dim>
					<dim>19</dim>
				</port>
			</input>
			<output>
				<port id="3">
					<dim>1</dim>
					<dim>384</dim>
					<dim>19</dim>
					<dim>19</dim>
				</port>
			</output>
			<blobs>
				<weights offset="724864" size="98304"/>
				<biases offset="823168" size="1536"/>
			</blobs>
		</layer>
		<layer id="53" name="FeatureExtractor/MobilenetV2/expanded_conv_9/expand/Relu6" precision="FP32" type="Clamp">
			<data max="6" min="0"/>
			<input>
				<port id="0">
					<dim>1</dim>
					<dim>384</dim>
					<dim>19</dim>
					<dim>19</dim>
				</port>
			</input>
			<output>
				<port id="1">
					<dim>1</dim>
					<dim>384</dim>
					<dim>19</dim>
					<dim>19</dim>
				</port>
			</output>
		</layer>
		<layer id="54" name="FeatureExtractor/MobilenetV2/expanded_conv_9/depthwise/depthwise" precision="FP32" type="Convolution">
			<data auto_pad="same_upper" dilations="1,1" group="384" kernel="3,3" output="384" pads_begin="1,1" pads_end="1,1" strides="1,1"/>
			<input>
				<port id="0">
					<dim>1</dim>
					<dim>384</dim>
					<dim>19</dim>
					<dim>19</dim>
				</port>
			</input>
			<output>
				<port id="3">
					<dim>1</dim>
					<dim>384</dim>
					<dim>19</dim>
					<dim>19</dim>
				</port>
			</output>
			<blobs>
				<weights offset="824704" size="13824"/>
				<biases offset="838528" size="1536"/>
			</blobs>
		</layer>
		<layer id="55" name="FeatureExtractor/MobilenetV2/expanded_conv_9/depthwise/Relu6" precision="FP32" type="Clamp">
			<data max="6" min="0"/>
			<input>
				<port id="0">
					<dim>1</dim>
					<dim>384</dim>
					<dim>19</dim>
					<dim>19</dim>
				</port>
			</input>
			<output>
				<port id="1">
					<dim>1</dim>
					<dim>384</dim>
					<dim>19</dim>
					<dim>19</dim>
				</port>
			</output>
		</layer>
		<layer id="56" name="FeatureExtractor/MobilenetV2/expanded_conv_9/project/BatchNorm/batchnorm/mul_1" precision="FP32" type="Convolution">
			<data auto_pad="same_upper" dilations="1,1" group="1" kernel="1,1" output="64" pads_begin="0,0" pads_end="0,0" strides="1,1"/>
			<input>
				<port id="0">
					<dim>1</dim>
					<dim>384</dim>
					<dim>19</dim>
					<dim>19</dim>
				</port>
			</input>
			<output>
				<port id="3">
					<dim>1</dim>
					<dim>64</dim>
					<dim>19</dim>
					<dim>19</dim>
				</port>
			</output>
			<blobs>
				<weights offset="840064" size="98304"/>
				<biases offset="938368" size="256"/>
			</blobs>
		</layer>
		<layer id="57" name="FeatureExtractor/MobilenetV2/expanded_conv_9/add" precision="FP32" type="Eltwise">
			<data operation="sum"/>
			<input>
				<port id="0">
					<dim>1</dim>
					<dim>64</dim>
					<dim>19</dim>
					<dim>19</dim>
				</port>
				<port id="1">
					<dim>1</dim>
					<dim>64</dim>
					<dim>19</dim>
					<dim>19</dim>
				</port>
			</input>
			<output>
				<port id="2">
					<dim>1</dim>
					<dim>64</dim>
					<dim>19</dim>
					<dim>19</dim>
				</port>
			</output>
		</layer>
		<layer id="58" name="FeatureExtractor/MobilenetV2/expanded_conv_10/expand/BatchNorm/batchnorm/mul_1" precision="FP32" type="Convolution">
			<data auto_pad="same_upper" dilations="1,1" group="1" kernel="1,1" output="384" pads_begin="0,0" pads_end="0,0" strides="1,1"/>
			<input>
				<port id="0">
					<dim>1</dim>
					<dim>64</dim>
					<dim>19</dim>
					<dim>19</dim>
				</port>
			</input>
			<output>
				<port id="3">
					<dim>1</dim>
					<dim>384</dim>
					<dim>19</dim>
					<dim>19</dim>
				</port>
			</output>
			<blobs>
				<weights offset="938624" size="98304"/>
				<biases offset="1036928" size="1536"/>
			</blobs>
		</layer>
		<layer id="59" name="FeatureExtractor/MobilenetV2/expanded_conv_10/expand/Relu6" precision="FP32" type="Clamp">
			<data max="6" min="0"/>
			<input>
				<port id="0">
					<dim>1</dim>
					<dim>384</dim>
					<dim>19</dim>
					<dim>19</dim>
				</port>
			</input>
			<output>
				<port id="1">
					<dim>1</dim>
					<dim>384</dim>
					<dim>19</dim>
					<dim>19</dim>
				</port>
			</output>
		</layer>
		<layer id="60" name="FeatureExtractor/MobilenetV2/expanded_conv_10/depthwise/depthwise" precision="FP32" type="Convolution">
			<data auto_pad="same_upper" dilations="1,1" group="384" kernel="3,3" output="384" pads_begin="1,1" pads_end="1,1" strides="1,1"/>
			<input>
				<port id="0">
					<dim>1</dim>
					<dim>384</dim>
					<dim>19</dim>
					<dim>19</dim>
				</port>
			</input>
			<output>
				<port id="3">
					<dim>1</dim>
					<dim>384</dim>
					<dim>19</dim>
					<dim>19</dim>
				</port>
			</output>
			<blobs>
				<weights offset="1038464" size="13824"/>
				<biases offset="1052288" size="1536"/>
			</blobs>
		</layer>
		<layer id="61" name="FeatureExtractor/MobilenetV2/expanded_conv_10/depthwise/Relu6" precision="FP32" type="Clamp">
			<data max="6" min="0"/>
			<input>
				<port id="0">
					<dim>1</dim>
					<dim>384</dim>
					<dim>19</dim>
					<dim>19</dim>
				</port>
			</input>
			<output>
				<port id="1">
					<dim>1</dim>
					<dim>384</dim>
					<dim>19</dim>
					<dim>19</dim>
				</port>
			</output>
		</layer>
		<layer id="62" name="FeatureExtractor/MobilenetV2/expanded_conv_10/project/BatchNorm/batchnorm/mul_1" precision="FP32" type="Convolution">
			<data auto_pad="same_upper" dilations="1,1" group="1" kernel="1,1" output="96" pads_begin="0,0" pads_end="0,0" strides="1,1"/>
			<input>
				<port id="0">
					<dim>1</dim>
					<dim>384</dim>
					<dim>19</dim>
					<dim>19</dim>
				</port>
			</input>
			<output>
				<port id="3">
					<dim>1</dim>
					<dim>96</dim>
					<dim>19</dim>
					<dim>19</dim>
				</port>
			</output>
			<blobs>
				<weights offset="1053824" size="147456"/>
				<biases offset="1201280" size="384"/>
			</blobs>
		</layer>
		<layer id="63" name="FeatureExtractor/MobilenetV2/expanded_conv_11/expand/BatchNorm/batchnorm/mul_1" precision="FP32" type="Convolution">
			<data auto_pad="same_upper" dilations="1,1" group="1" kernel="1,1" output="576" pads_begin="0,0" pads_end="0,0" strides="1,1"/>
			<input>
				<port id="0">
					<dim>1</dim>
					<dim>96</dim>
					<dim>19</dim>
					<dim>19</dim>
				</port>
			</input>
			<output>
				<port id="3">
					<dim>1</dim>
					<dim>576</dim>
					<dim>19</dim>
					<dim>19</dim>
				</port>
			</output>
			<blobs>
				<weights offset="1201664" size="221184"/>
				<biases offset="1422848" size="2304"/>
			</blobs>
		</layer>
		<layer id="64" name="FeatureExtractor/MobilenetV2/expanded_conv_11/expand/Relu6" precision="FP32" type="Clamp">
			<data max="6" min="0"/>
			<input>
				<port id="0">
					<dim>1</dim>
					<dim>576</dim>
					<dim>19</dim>
					<dim>19</dim>
				</port>
			</input>
			<output>
				<port id="1">
					<dim>1</dim>
					<dim>576</dim>
					<dim>19</dim>
					<dim>19</dim>
				</port>
			</output>
		</layer>
		<layer id="65" name="FeatureExtractor/MobilenetV2/expanded_conv_11/depthwise/depthwise" precision="FP32" type="Convolution">
			<data auto_pad="same_upper" dilations="1,1" group="576" kernel="3,3" output="576" pads_begin="1,1" pads_end="1,1" strides="1,1"/>
			<input>
				<port id="0">
					<dim>1</dim>
					<dim>576</dim>
					<dim>19</dim>
					<dim>19</dim>
				</port>
			</input>
			<output>
				<port id="3">
					<dim>1</dim>
					<dim>576</dim>
					<dim>19</dim>
					<dim>19</dim>
				</port>
			</output>
			<blobs>
				<weights offset="1425152" size="20736"/>
				<biases offset="1445888" size="2304"/>
			</blobs>
		</layer>
		<layer id="66" name="FeatureExtractor/MobilenetV2/expanded_conv_11/depthwise/Relu6" precision="FP32" type="Clamp">
			<data max="6" min="0"/>
			<input>
				<port id="0">
					<dim>1</dim>
					<dim>576</dim>
					<dim>19</dim>
					<dim>19</dim>
				</port>
			</input>
			<output>
				<port id="1">
					<dim>1</dim>
					<dim>576</dim>
					<dim>19</dim>
					<dim>19</dim>
				</port>
			</output>
		</layer>
		<layer id="67" name="FeatureExtractor/MobilenetV2/expanded_conv_11/project/BatchNorm/batchnorm/mul_1" precision="FP32" type="Convolution">
			<data auto_pad="same_upper" dilations="1,1" group="1" kernel="1,1" output="96" pads_begin="0,0" pads_end="0,0" strides="1,1"/>
			<input>
				<port id="0">
					<dim>1</dim>
					<dim>576</dim>
					<dim>19</dim>
					<dim>19</dim>
				</port>
			</input>
			<output>
				<port id="3">
					<dim>1</dim>
					<dim>96</dim>
					<dim>19</dim>
					<dim>19</dim>
				</port>
			</output>
			<blobs>
				<weights offset="1448192" size="221184"/>
				<biases offset="1669376" size="384"/>
			</blobs>
		</layer>
		<layer id="68" name="FeatureExtractor/MobilenetV2/expanded_conv_11/add" precision="FP32" type="Eltwise">
			<data operation="sum"/>
			<input>
				<port id="0">
					<dim>1</dim>
					<dim>96</dim>
					<dim>19</dim>
					<dim>19</dim>
				</port>
				<port id="1">
					<dim>1</dim>
					<dim>96</dim>
					<dim>19</dim>
					<dim>19</dim>
				</port>
			</input>
			<output>
				<port id="2">
					<dim>1</dim>
					<dim>96</dim>
					<dim>19</dim>
					<dim>19</dim>
				</port>
			</output>
		</layer>
		<layer id="69" name="FeatureExtractor/MobilenetV2/expanded_conv_12/expand/BatchNorm/batchnorm/mul_1" precision="FP32" type="Convolution">
			<data auto_pad="same_upper" dilations="1,1" group="1" kernel="1,1" output="576" pads_begin="0,0" pads_end="0,0" strides="1,1"/>
			<input>
				<port id="0">
					<dim>1</dim>
					<dim>96</dim>
					<dim>19</dim>
					<dim>19</dim>
				</port>
			</input>
			<output>
				<port id="3">
					<dim>1</dim>
					<dim>576</dim>
					<dim>19</dim>
					<dim>19</dim>
				</port>
			</output>
			<blobs>
				<weights offset="1669760" size="221184"/>
				<biases offset="1890944" size="2304"/>
			</blobs>
		</layer>
		<layer id="70" name="FeatureExtractor/MobilenetV2/expanded_conv_12/expand/Relu6" precision="FP32" type="Clamp">
			<data max="6" min="0"/>
			<input>
				<port id="0">
					<dim>1</dim>
					<dim>576</dim>
					<dim>19</dim>
					<dim>19</dim>
				</port>
			</input>
			<output>
				<port id="1">
					<dim>1</dim>
					<dim>576</dim>
					<dim>19</dim>
					<dim>19</dim>
				</port>
			</output>
		</layer>
		<layer id="71" name="FeatureExtractor/MobilenetV2/expanded_conv_12/depthwise/depthwise" precision="FP32" type="Convolution">
			<data auto_pad="same_upper" dilations="1,1" group="576" kernel="3,3" output="576" pads_begin="1,1" pads_end="1,1" strides="1,1"/>
			<input>
				<port id="0">
					<dim>1</dim>
					<dim>576</dim>
					<dim>19</dim>
					<dim>19</dim>
				</port>
			</input>
			<output>
				<port id="3">
					<dim>1</dim>
					<dim>576</dim>
					<dim>19</dim>
					<dim>19</dim>
				</port>
			</output>
			<blobs>
				<weights offset="1893248" size="20736"/>
				<biases offset="1913984" size="2304"/>
			</blobs>
		</layer>
		<layer id="72" name="FeatureExtractor/MobilenetV2/expanded_conv_12/depthwise/Relu6" precision="FP32" type="Clamp">
			<data max="6" min="0"/>
			<input>
				<port id="0">
					<dim>1</dim>
					<dim>576</dim>
					<dim>19</dim>
					<dim>19</dim>
				</port>
			</input>
			<output>
				<port id="1">
					<dim>1</dim>
					<dim>576</dim>
					<dim>19</dim>
					<dim>19</dim>
				</port>
			</output>
		</layer>
		<layer id="73" name="FeatureExtractor/MobilenetV2/expanded_conv_12/project/BatchNorm/batchnorm/mul_1" precision="FP32" type="Convolution">
			<data auto_pad="same_upper" dilations="1,1" group="1" kernel="1,1" output="96" pads_begin="0,0" pads_end="0,0" strides="1,1"/>
			<input>
				<port id="0">
					<dim>1</dim>
					<dim>576</dim>
					<dim>19</dim>
					<dim>19</dim>
				</port>
			</input>
			<output>
				<port id="3">
					<dim>1</dim>
					<dim>96</dim>
					<dim>19</dim>
					<dim>19</dim>
				</port>
			</output>
			<blobs>
				<weights offset="1916288" size="221184"/>
				<biases offset="2137472" size="384"/>
			</blobs>
		</layer>
		<layer id="74" name="FeatureExtractor/MobilenetV2/expanded_conv_12/add" precision="FP32" type="Eltwise">
			<data operation="sum"/>
			<input>
				<port id="0">
					<dim>1</dim>
					<dim>96</dim>
					<dim>19</dim>
					<dim>19</dim>
				</port>
				<port id="1">
					<dim>1</dim>
					<dim>96</dim>
					<dim>19</dim>
					<dim>19</dim>
				</port>
			</input>
			<output>
				<port id="2">
					<dim>1</dim>
					<dim>96</dim>
					<dim>19</dim>
					<dim>19</dim>
				</port>
			</output>
		</layer>
		<layer id="75" name="FeatureExtractor/MobilenetV2/expanded_conv_13/expand/BatchNorm/batchnorm/mul_1" precision="FP32" type="Convolution">
			<data auto_pad="same_upper" dilations="1,1" group="1" kernel="1,1" output="576" pads_begin="0,0" pads_end="0,0" strides="1,1"/>
			<input>
				<port id="0">
					<dim>1</dim>
					<dim>96</dim>
					<dim>19</dim>
					<dim>19</dim>
				</port>
			</input>
			<output>
				<port id="3">
					<dim>1</dim>
					<dim>576</dim>
					<dim>19</dim>
					<dim>19</dim>
				</port>
			</output>
			<blobs>
				<weights offset="2137856" size="221184"/>
				<biases offset="2359040" size="2304"/>
			</blobs>
		</layer>
		<layer id="76" name="FeatureExtractor/MobilenetV2/expanded_conv_13/expand/Relu6" precision="FP32" type="Clamp">
			<data max="6" min="0"/>
			<input>
				<port id="0">
					<dim>1</dim>
					<dim>576</dim>
					<dim>19</dim>
					<dim>19</dim>
				</port>
			</input>
			<output>
				<port id="1">
					<dim>1</dim>
					<dim>576</dim>
					<dim>19</dim>
					<dim>19</dim>
				</port>
			</output>
		</layer>
		<layer id="77" name="BoxPredictor_0/BoxEncodingPredictor_depthwise/depthwise" precision="FP32" type="Convolution">
			<data auto_pad="same_upper" dilations="1,1" group="576" kernel="3,3" output="576" pads_begin="1,1" pads_end="1,1" strides="1,1"/>
			<input>
				<port id="0">
					<dim>1</dim>
					<dim>576</dim>
					<dim>19</dim>
					<dim>19</dim>
				</port>
			</input>
			<output>
				<port id="3">
					<dim>1</dim>
					<dim>576</dim>
					<dim>19</dim>
					<dim>19</dim>
				</port>
			</output>
			<blobs>
				<weights offset="2361344" size="20736"/>
				<biases offset="2382080" size="2304"/>
			</blobs>
		</layer>
		<layer id="78" name="BoxPredictor_0/BoxEncodingPredictor_depthwise/Relu6" precision="FP32" type="Clamp">
			<data max="6" min="0"/>
			<input>
				<port id="0">
					<dim>1</dim>
					<dim>576</dim>
					<dim>19</dim>
					<dim>19</dim>
				</port>
			</input>
			<output>
				<port id="1">
					<dim>1</dim>
					<dim>576</dim>
					<dim>19</dim>
					<dim>19</dim>
				</port>
			</output>
		</layer>
		<layer id="79" name="BoxPredictor_0/BoxEncodingPredictor/Conv2D" precision="FP32" type="Convolution">
			<data auto_pad="same_upper" dilations="1,1" group="1" kernel="1,1" output="12" pads_begin="0,0" pads_end="0,0" strides="1,1"/>
			<input>
				<port id="0">
					<dim>1</dim>
					<dim>576</dim>
					<dim>19</dim>
					<dim>19</dim>
				</port>
			</input>
			<output>
				<port id="3">
					<dim>1</dim>
					<dim>12</dim>
					<dim>19</dim>
					<dim>19</dim>
				</port>
			</output>
			<blobs>
				<weights offset="2384384" size="27648"/>
				<biases offset="2412032" size="48"/>
			</blobs>
		</layer>
		<layer id="80" name="BoxPredictor_0/BoxEncodingPredictor/Conv2D/Transpose" precision="FP32" type="Permute">
			<data order="0,2,3,1"/>
			<input>
				<port id="0">
					<dim>1</dim>
					<dim>12</dim>
					<dim>19</dim>
					<dim>19</dim>
				</port>
			</input>
			<output>
				<port id="1">
					<dim>1</dim>
					<dim>19</dim>
					<dim>19</dim>
					<dim>12</dim>
				</port>
			</output>
		</layer>
		<layer id="81" name="6420/Output_0/Data__const" precision="I32" type="Const">
			<output>
				<port id="1">
					<dim>3</dim>
				</port>
			</output>
			<blobs>
				<custom offset="2412080" size="12"/>
			</blobs>
		</layer>
		<layer id="82" name="BoxPredictor_0/BoxEncodingPredictor/BiasAdd/Reshape" precision="FP32" type="Reshape">
			<input>
				<port id="0">
					<dim>1</dim>
					<dim>19</dim>
					<dim>19</dim>
					<dim>12</dim>
				</port>
				<port id="1">
					<dim>3</dim>
				</port>
			</input>
			<output>
				<port id="2">
					<dim>1</dim>
					<dim>1083</dim>
					<dim>4</dim>
				</port>
			</output>
		</layer>
		<layer id="83" name="FeatureExtractor/MobilenetV2/expanded_conv_13/depthwise/depthwise" precision="FP32" type="Convolution">
			<data auto_pad="same_upper" dilations="1,1" group="576" kernel="3,3" output="576" pads_begin="1,1" pads_end="1,1" strides="2,2"/>
			<input>
				<port id="0">
					<dim>1</dim>
					<dim>576</dim>
					<dim>19</dim>
					<dim>19</dim>
				</port>
			</input>
			<output>
				<port id="3">
					<dim>1</dim>
					<dim>576</dim>
					<dim>10</dim>
					<dim>10</dim>
				</port>
			</output>
			<blobs>
				<weights offset="2412092" size="20736"/>
				<biases offset="2432828" size="2304"/>
			</blobs>
		</layer>
		<layer id="84" name="FeatureExtractor/MobilenetV2/expanded_conv_13/depthwise/Relu6" precision="FP32" type="Clamp">
			<data max="6" min="0"/>
			<input>
				<port id="0">
					<dim>1</dim>
					<dim>576</dim>
					<dim>10</dim>
					<dim>10</dim>
				</port>
			</input>
			<output>
				<port id="1">
					<dim>1</dim>
					<dim>576</dim>
					<dim>10</dim>
					<dim>10</dim>
				</port>
			</output>
		</layer>
		<layer id="85" name="FeatureExtractor/MobilenetV2/expanded_conv_13/project/BatchNorm/batchnorm/mul_1" precision="FP32" type="Convolution">
			<data auto_pad="same_upper" dilations="1,1" group="1" kernel="1,1" output="160" pads_begin="0,0" pads_end="0,0" strides="1,1"/>
			<input>
				<port id="0">
					<dim>1</dim>
					<dim>576</dim>
					<dim>10</dim>
					<dim>10</dim>
				</port>
			</input>
			<output>
				<port id="3">
					<dim>1</dim>
					<dim>160</dim>
					<dim>10</dim>
					<dim>10</dim>
				</port>
			</output>
			<blobs>
				<weights offset="2435132" size="368640"/>
				<biases offset="2803772" size="640"/>
			</blobs>
		</layer>
		<layer id="86" name="FeatureExtractor/MobilenetV2/expanded_conv_14/expand/BatchNorm/batchnorm/mul_1" precision="FP32" type="Convolution">
			<data auto_pad="same_upper" dilations="1,1" group="1" kernel="1,1" output="960" pads_begin="0,0" pads_end="0,0" strides="1,1"/>
			<input>
				<port id="0">
					<dim>1</dim>
					<dim>160</dim>
					<dim>10</dim>
					<dim>10</dim>
				</port>
			</input>
			<output>
				<port id="3">
					<dim>1</dim>
					<dim>960</dim>
					<dim>10</dim>
					<dim>10</dim>
				</port>
			</output>
			<blobs>
				<weights offset="2804412" size="614400"/>
				<biases offset="3418812" size="3840"/>
			</blobs>
		</layer>
		<layer id="87" name="FeatureExtractor/MobilenetV2/expanded_conv_14/expand/Relu6" precision="FP32" type="Clamp">
			<data max="6" min="0"/>
			<input>
				<port id="0">
					<dim>1</dim>
					<dim>960</dim>
					<dim>10</dim>
					<dim>10</dim>
				</port>
			</input>
			<output>
				<port id="1">
					<dim>1</dim>
					<dim>960</dim>
					<dim>10</dim>
					<dim>10</dim>
				</port>
			</output>
		</layer>
		<layer id="88" name="FeatureExtractor/MobilenetV2/expanded_conv_14/depthwise/depthwise" precision="FP32" type="Convolution">
			<data auto_pad="same_upper" dilations="1,1" group="960" kernel="3,3" output="960" pads_begin="1,1" pads_end="1,1" strides="1,1"/>
			<input>
				<port id="0">
					<dim>1</dim>
					<dim>960</dim>
					<dim>10</dim>
					<dim>10</dim>
				</port>
			</input>
			<output>
				<port id="3">
					<dim>1</dim>
					<dim>960</dim>
					<dim>10</dim>
					<dim>10</dim>
				</port>
			</output>
			<blobs>
				<weights offset="3422652" size="34560"/>
				<biases offset="3457212" size="3840"/>
			</blobs>
		</layer>
		<layer id="89" name="FeatureExtractor/MobilenetV2/expanded_conv_14/depthwise/Relu6" precision="FP32" type="Clamp">
			<data max="6" min="0"/>
			<input>
				<port id="0">
					<dim>1</dim>
					<dim>960</dim>
					<dim>10</dim>
					<dim>10</dim>
				</port>
			</input>
			<output>
				<port id="1">
					<dim>1</dim>
					<dim>960</dim>
					<dim>10</dim>
					<dim>10</dim>
				</port>
			</output>
		</layer>
		<layer id="90" name="FeatureExtractor/MobilenetV2/expanded_conv_14/project/BatchNorm/batchnorm/mul_1" precision="FP32" type="Convolution">
			<data auto_pad="same_upper" dilations="1,1" group="1" kernel="1,1" output="160" pads_begin="0,0" pads_end="0,0" strides="1,1"/>
			<input>
				<port id="0">
					<dim>1</dim>
					<dim>960</dim>
					<dim>10</dim>
					<dim>10</dim>
				</port>
			</input>
			<output>
				<port id="3">
					<dim>1</dim>
					<dim>160</dim>
					<dim>10</dim>
					<dim>10</dim>
				</port>
			</output>
			<blobs>
				<weights offset="3461052" size="614400"/>
				<biases offset="4075452" size="640"/>
			</blobs>
		</layer>
		<layer id="91" name="FeatureExtractor/MobilenetV2/expanded_conv_14/add" precision="FP32" type="Eltwise">
			<data operation="sum"/>
			<input>
				<port id="0">
					<dim>1</dim>
					<dim>160</dim>
					<dim>10</dim>
					<dim>10</dim>
				</port>
				<port id="1">
					<dim>1</dim>
					<dim>160</dim>
					<dim>10</dim>
					<dim>10</dim>
				</port>
			</input>
			<output>
				<port id="2">
					<dim>1</dim>
					<dim>160</dim>
					<dim>10</dim>
					<dim>10</dim>
				</port>
			</output>
		</layer>
		<layer id="92" name="FeatureExtractor/MobilenetV2/expanded_conv_15/expand/BatchNorm/batchnorm/mul_1" precision="FP32" type="Convolution">
			<data auto_pad="same_upper" dilations="1,1" group="1" kernel="1,1" output="960" pads_begin="0,0" pads_end="0,0" strides="1,1"/>
			<input>
				<port id="0">
					<dim>1</dim>
					<dim>160</dim>
					<dim>10</dim>
					<dim>10</dim>
				</port>
			</input>
			<output>
				<port id="3">
					<dim>1</dim>
					<dim>960</dim>
					<dim>10</dim>
					<dim>10</dim>
				</port>
			</output>
			<blobs>
				<weights offset="4076092" size="614400"/>
				<biases offset="4690492" size="3840"/>
			</blobs>
		</layer>
		<layer id="93" name="FeatureExtractor/MobilenetV2/expanded_conv_15/expand/Relu6" precision="FP32" type="Clamp">
			<data max="6" min="0"/>
			<input>
				<port id="0">
					<dim>1</dim>
					<dim>960</dim>
					<dim>10</dim>
					<dim>10</dim>
				</port>
			</input>
			<output>
				<port id="1">
					<dim>1</dim>
					<dim>960</dim>
					<dim>10</dim>
					<dim>10</dim>
				</port>
			</output>
		</layer>
		<layer id="94" name="FeatureExtractor/MobilenetV2/expanded_conv_15/depthwise/depthwise" precision="FP32" type="Convolution">
			<data auto_pad="same_upper" dilations="1,1" group="960" kernel="3,3" output="960" pads_begin="1,1" pads_end="1,1" strides="1,1"/>
			<input>
				<port id="0">
					<dim>1</dim>
					<dim>960</dim>
					<dim>10</dim>
					<dim>10</dim>
				</port>
			</input>
			<output>
				<port id="3">
					<dim>1</dim>
					<dim>960</dim>
					<dim>10</dim>
					<dim>10</dim>
				</port>
			</output>
			<blobs>
				<weights offset="4694332" size="34560"/>
				<biases offset="4728892" size="3840"/>
			</blobs>
		</layer>
		<layer id="95" name="FeatureExtractor/MobilenetV2/expanded_conv_15/depthwise/Relu6" precision="FP32" type="Clamp">
			<data max="6" min="0"/>
			<input>
				<port id="0">
					<dim>1</dim>
					<dim>960</dim>
					<dim>10</dim>
					<dim>10</dim>
				</port>
			</input>
			<output>
				<port id="1">
					<dim>1</dim>
					<dim>960</dim>
					<dim>10</dim>
					<dim>10</dim>
				</port>
			</output>
		</layer>
		<layer id="96" name="FeatureExtractor/MobilenetV2/expanded_conv_15/project/BatchNorm/batchnorm/mul_1" precision="FP32" type="Convolution">
			<data auto_pad="same_upper" dilations="1,1" group="1" kernel="1,1" output="160" pads_begin="0,0" pads_end="0,0" strides="1,1"/>
			<input>
				<port id="0">
					<dim>1</dim>
					<dim>960</dim>
					<dim>10</dim>
					<dim>10</dim>
				</port>
			</input>
			<output>
				<port id="3">
					<dim>1</dim>
					<dim>160</dim>
					<dim>10</dim>
					<dim>10</dim>
				</port>
			</output>
			<blobs>
				<weights offset="4732732" size="614400"/>
				<biases offset="5347132" size="640"/>
			</blobs>
		</layer>
		<layer id="97" name="FeatureExtractor/MobilenetV2/expanded_conv_15/add" precision="FP32" type="Eltwise">
			<data operation="sum"/>
			<input>
				<port id="0">
					<dim>1</dim>
					<dim>160</dim>
					<dim>10</dim>
					<dim>10</dim>
				</port>
				<port id="1">
					<dim>1</dim>
					<dim>160</dim>
					<dim>10</dim>
					<dim>10</dim>
				</port>
			</input>
			<output>
				<port id="2">
					<dim>1</dim>
					<dim>160</dim>
					<dim>10</dim>
					<dim>10</dim>
				</port>
			</output>
		</layer>
		<layer id="98" name="FeatureExtractor/MobilenetV2/expanded_conv_16/expand/BatchNorm/batchnorm/mul_1" precision="FP32" type="Convolution">
			<data auto_pad="same_upper" dilations="1,1" group="1" kernel="1,1" output="960" pads_begin="0,0" pads_end="0,0" strides="1,1"/>
			<input>
				<port id="0">
					<dim>1</dim>
					<dim>160</dim>
					<dim>10</dim>
					<dim>10</dim>
				</port>
			</input>
			<output>
				<port id="3">
					<dim>1</dim>
					<dim>960</dim>
					<dim>10</dim>
					<dim>10</dim>
				</port>
			</output>
			<blobs>
				<weights offset="5347772" size="614400"/>
				<biases offset="5962172" size="3840"/>
			</blobs>
		</layer>
		<layer id="99" name="FeatureExtractor/MobilenetV2/expanded_conv_16/expand/Relu6" precision="FP32" type="Clamp">
			<data max="6" min="0"/>
			<input>
				<port id="0">
					<dim>1</dim>
					<dim>960</dim>
					<dim>10</dim>
					<dim>10</dim>
				</port>
			</input>
			<output>
				<port id="1">
					<dim>1</dim>
					<dim>960</dim>
					<dim>10</dim>
					<dim>10</dim>
				</port>
			</output>
		</layer>
		<layer id="100" name="FeatureExtractor/MobilenetV2/expanded_conv_16/depthwise/depthwise" precision="FP32" type="Convolution">
			<data auto_pad="same_upper" dilations="1,1" group="960" kernel="3,3" output="960" pads_begin="1,1" pads_end="1,1" strides="1,1"/>
			<input>
				<port id="0">
					<dim>1</dim>
					<dim>960</dim>
					<dim>10</dim>
					<dim>10</dim>
				</port>
			</input>
			<output>
				<port id="3">
					<dim>1</dim>
					<dim>960</dim>
					<dim>10</dim>
					<dim>10</dim>
				</port>
			</output>
			<blobs>
				<weights offset="5966012" size="34560"/>
				<biases offset="6000572" size="3840"/>
			</blobs>
		</layer>
		<layer id="101" name="FeatureExtractor/MobilenetV2/expanded_conv_16/depthwise/Relu6" precision="FP32" type="Clamp">
			<data max="6" min="0"/>
			<input>
				<port id="0">
					<dim>1</dim>
					<dim>960</dim>
					<dim>10</dim>
					<dim>10</dim>
				</port>
			</input>
			<output>
				<port id="1">
					<dim>1</dim>
					<dim>960</dim>
					<dim>10</dim>
					<dim>10</dim>
				</port>
			</output>
		</layer>
		<layer id="102" name="FeatureExtractor/MobilenetV2/expanded_conv_16/project/BatchNorm/batchnorm/mul_1" precision="FP32" type="Convolution">
			<data auto_pad="same_upper" dilations="1,1" group="1" kernel="1,1" output="320" pads_begin="0,0" pads_end="0,0" strides="1,1"/>
			<input>
				<port id="0">
					<dim>1</dim>
					<dim>960</dim>
					<dim>10</dim>
					<dim>10</dim>
				</port>
			</input>
			<output>
				<port id="3">
					<dim>1</dim>
					<dim>320</dim>
					<dim>10</dim>
					<dim>10</dim>
				</port>
			</output>
			<blobs>
				<weights offset="6004412" size="1228800"/>
				<biases offset="7233212" size="1280"/>
			</blobs>
		</layer>
		<layer id="103" name="FeatureExtractor/MobilenetV2/Conv_1/BatchNorm/batchnorm/mul_1" precision="FP32" type="Convolution">
			<data auto_pad="same_upper" dilations="1,1" group="1" kernel="1,1" output="1280" pads_begin="0,0" pads_end="0,0" strides="1,1"/>
			<input>
				<port id="0">
					<dim>1</dim>
					<dim>320</dim>
					<dim>10</dim>
					<dim>10</dim>
				</port>
			</input>
			<output>
				<port id="3">
					<dim>1</dim>
					<dim>1280</dim>
					<dim>10</dim>
					<dim>10</dim>
				</port>
			</output>
			<blobs>
				<weights offset="7234492" size="1638400"/>
				<biases offset="8872892" size="5120"/>
			</blobs>
		</layer>
		<layer id="104" name="FeatureExtractor/MobilenetV2/Conv_1/Relu6" precision="FP32" type="Clamp">
			<data max="6" min="0"/>
			<input>
				<port id="0">
					<dim>1</dim>
					<dim>1280</dim>
					<dim>10</dim>
					<dim>10</dim>
				</port>
			</input>
			<output>
				<port id="1">
					<dim>1</dim>
					<dim>1280</dim>
					<dim>10</dim>
					<dim>10</dim>
				</port>
			</output>
		</layer>
		<layer id="105" name="BoxPredictor_1/BoxEncodingPredictor_depthwise/depthwise" precision="FP32" type="Convolution">
			<data auto_pad="same_upper" dilations="1,1" group="1280" kernel="3,3" output="1280" pads_begin="1,1" pads_end="1,1" strides="1,1"/>
			<input>
				<port id="0">
					<dim>1</dim>
					<dim>1280</dim>
					<dim>10</dim>
					<dim>10</dim>
				</port>
			</input>
			<output>
				<port id="3">
					<dim>1</dim>
					<dim>1280</dim>
					<dim>10</dim>
					<dim>10</dim>
				</port>
			</output>
			<blobs>
				<weights offset="8878012" size="46080"/>
				<biases offset="8924092" size="5120"/>
			</blobs>
		</layer>
		<layer id="106" name="BoxPredictor_1/BoxEncodingPredictor_depthwise/Relu6" precision="FP32" type="Clamp">
			<data max="6" min="0"/>
			<input>
				<port id="0">
					<dim>1</dim>
					<dim>1280</dim>
					<dim>10</dim>
					<dim>10</dim>
				</port>
			</input>
			<output>
				<port id="1">
					<dim>1</dim>
					<dim>1280</dim>
					<dim>10</dim>
					<dim>10</dim>
				</port>
			</output>
		</layer>
		<layer id="107" name="BoxPredictor_1/BoxEncodingPredictor/Conv2D" precision="FP32" type="Convolution">
			<data auto_pad="same_upper" dilations="1,1" group="1" kernel="1,1" output="24" pads_begin="0,0" pads_end="0,0" strides="1,1"/>
			<input>
				<port id="0">
					<dim>1</dim>
					<dim>1280</dim>
					<dim>10</dim>
					<dim>10</dim>
				</port>
			</input>
			<output>
				<port id="3">
					<dim>1</dim>
					<dim>24</dim>
					<dim>10</dim>
					<dim>10</dim>
				</port>
			</output>
			<blobs>
				<weights offset="8929212" size="122880"/>
				<biases offset="9052092" size="96"/>
			</blobs>
		</layer>
		<layer id="108" name="BoxPredictor_1/BoxEncodingPredictor/Conv2D/Transpose" precision="FP32" type="Permute">
			<data order="0,2,3,1"/>
			<input>
				<port id="0">
					<dim>1</dim>
					<dim>24</dim>
					<dim>10</dim>
					<dim>10</dim>
				</port>
			</input>
			<output>
				<port id="1">
					<dim>1</dim>
					<dim>10</dim>
					<dim>10</dim>
					<dim>24</dim>
				</port>
			</output>
		</layer>
		<layer id="109" name="6424/Output_0/Data__const" precision="I32" type="Const">
			<output>
				<port id="1">
					<dim>3</dim>
				</port>
			</output>
			<blobs>
				<custom offset="2412080" size="12"/>
			</blobs>
		</layer>
		<layer id="110" name="BoxPredictor_1/BoxEncodingPredictor/BiasAdd/Reshape" precision="FP32" type="Reshape">
			<input>
				<port id="0">
					<dim>1</dim>
					<dim>10</dim>
					<dim>10</dim>
					<dim>24</dim>
				</port>
				<port id="1">
					<dim>3</dim>
				</port>
			</input>
			<output>
				<port id="2">
					<dim>1</dim>
					<dim>600</dim>
					<dim>4</dim>
				</port>
			</output>
		</layer>
		<layer id="111" name="FeatureExtractor/MobilenetV2/layer_19_1_Conv2d_2_1x1_256/BatchNorm/batchnorm/mul_1" precision="FP32" type="Convolution">
			<data auto_pad="same_upper" dilations="1,1" group="1" kernel="1,1" output="256" pads_begin="0,0" pads_end="0,0" strides="1,1"/>
			<input>
				<port id="0">
					<dim>1</dim>
					<dim>1280</dim>
					<dim>10</dim>
					<dim>10</dim>
				</port>
			</input>
			<output>
				<port id="3">
					<dim>1</dim>
					<dim>256</dim>
					<dim>10</dim>
					<dim>10</dim>
				</port>
			</output>
			<blobs>
				<weights offset="9052188" size="1310720"/>
				<biases offset="10362908" size="1024"/>
			</blobs>
		</layer>
		<layer id="112" name="FeatureExtractor/MobilenetV2/layer_19_1_Conv2d_2_1x1_256/Relu6" precision="FP32" type="Clamp">
			<data max="6" min="0"/>
			<input>
				<port id="0">
					<dim>1</dim>
					<dim>256</dim>
					<dim>10</dim>
					<dim>10</dim>
				</port>
			</input>
			<output>
				<port id="1">
					<dim>1</dim>
					<dim>256</dim>
					<dim>10</dim>
					<dim>10</dim>
				</port>
			</output>
		</layer>
		<layer id="113" name="FeatureExtractor/MobilenetV2/layer_19_2_Conv2d_2_3x3_s2_512_depthwise/depthwise" precision="FP32" type="Convolution">
			<data auto_pad="same_upper" dilations="1,1" group="256" kernel="3,3" output="256" pads_begin="0,0" pads_end="1,1" strides="2,2"/>
			<input>
				<port id="0">
					<dim>1</dim>
					<dim>256</dim>
					<dim>10</dim>
					<dim>10</dim>
				</port>
			</input>
			<output>
				<port id="3">
					<dim>1</dim>
					<dim>256</dim>
					<dim>5</dim>
					<dim>5</dim>
				</port>
			</output>
			<blobs>
				<weights offset="10363932" size="9216"/>
				<biases offset="10373148" size="1024"/>
			</blobs>
		</layer>
		<layer id="114" name="FeatureExtractor/MobilenetV2/layer_19_2_Conv2d_2_3x3_s2_512_depthwise/Relu6" precision="FP32" type="Clamp">
			<data max="6" min="0"/>
			<input>
				<port id="0">
					<dim>1</dim>
					<dim>256</dim>
					<dim>5</dim>
					<dim>5</dim>
				</port>
			</input>
			<output>
				<port id="1">
					<dim>1</dim>
					<dim>256</dim>
					<dim>5</dim>
					<dim>5</dim>
				</port>
			</output>
		</layer>
		<layer id="115" name="FeatureExtractor/MobilenetV2/layer_19_2_Conv2d_2_3x3_s2_512/BatchNorm/batchnorm/mul_1" precision="FP32" type="Convolution">
			<data auto_pad="same_upper" dilations="1,1" group="1" kernel="1,1" output="512" pads_begin="0,0" pads_end="0,0" strides="1,1"/>
			<input>
				<port id="0">
					<dim>1</dim>
					<dim>256</dim>
					<dim>5</dim>
					<dim>5</dim>
				</port>
			</input>
			<output>
				<port id="3">
					<dim>1</dim>
					<dim>512</dim>
					<dim>5</dim>
					<dim>5</dim>
				</port>
			</output>
			<blobs>
				<weights offset="10374172" size="524288"/>
				<biases offset="10898460" size="2048"/>
			</blobs>
		</layer>
		<layer id="116" name="FeatureExtractor/MobilenetV2/layer_19_2_Conv2d_2_3x3_s2_512/Relu6" precision="FP32" type="Clamp">
			<data max="6" min="0"/>
			<input>
				<port id="0">
					<dim>1</dim>
					<dim>512</dim>
					<dim>5</dim>
					<dim>5</dim>
				</port>
			</input>
			<output>
				<port id="1">
					<dim>1</dim>
					<dim>512</dim>
					<dim>5</dim>
					<dim>5</dim>
				</port>
			</output>
		</layer>
		<layer id="117" name="BoxPredictor_2/BoxEncodingPredictor_depthwise/depthwise" precision="FP32" type="Convolution">
			<data auto_pad="same_upper" dilations="1,1" group="512" kernel="3,3" output="512" pads_begin="1,1" pads_end="1,1" strides="1,1"/>
			<input>
				<port id="0">
					<dim>1</dim>
					<dim>512</dim>
					<dim>5</dim>
					<dim>5</dim>
				</port>
			</input>
			<output>
				<port id="3">
					<dim>1</dim>
					<dim>512</dim>
					<dim>5</dim>
					<dim>5</dim>
				</port>
			</output>
			<blobs>
				<weights offset="10900508" size="18432"/>
				<biases offset="10918940" size="2048"/>
			</blobs>
		</layer>
		<layer id="118" name="BoxPredictor_2/BoxEncodingPredictor_depthwise/Relu6" precision="FP32" type="Clamp">
			<data max="6" min="0"/>
			<input>
				<port id="0">
					<dim>1</dim>
					<dim>512</dim>
					<dim>5</dim>
					<dim>5</dim>
				</port>
			</input>
			<output>
				<port id="1">
					<dim>1</dim>
					<dim>512</dim>
					<dim>5</dim>
					<dim>5</dim>
				</port>
			</output>
		</layer>
		<layer id="119" name="BoxPredictor_2/BoxEncodingPredictor/Conv2D" precision="FP32" type="Convolution">
			<data auto_pad="same_upper" dilations="1,1" group="1" kernel="1,1" output="24" pads_begin="0,0" pads_end="0,0" strides="1,1"/>
			<input>
				<port id="0">
					<dim>1</dim>
					<dim>512</dim>
					<dim>5</dim>
					<dim>5</dim>
				</port>
			</input>
			<output>
				<port id="3">
					<dim>1</dim>
					<dim>24</dim>
					<dim>5</dim>
					<dim>5</dim>
				</port>
			</output>
			<blobs>
				<weights offset="10920988" size="49152"/>
				<biases offset="10970140" size="96"/>
			</blobs>
		</layer>
		<layer id="120" name="BoxPredictor_2/BoxEncodingPredictor/Conv2D/Transpose" precision="FP32" type="Permute">
			<data order="0,2,3,1"/>
			<input>
				<port id="0">
					<dim>1</dim>
					<dim>24</dim>
					<dim>5</dim>
					<dim>5</dim>
				</port>
			</input>
			<output>
				<port id="1">
					<dim>1</dim>
					<dim>5</dim>
					<dim>5</dim>
					<dim>24</dim>
				</port>
			</output>
		</layer>
		<layer id="121" name="6428/Output_0/Data__const" precision="I32" type="Const">
			<output>
				<port id="1">
					<dim>3</dim>
				</port>
			</output>
			<blobs>
				<custom offset="2412080" size="12"/>
			</blobs>
		</layer>
		<layer id="122" name="BoxPredictor_2/BoxEncodingPredictor/BiasAdd/Reshape" precision="FP32" type="Reshape">
			<input>
				<port id="0">
					<dim>1</dim>
					<dim>5</dim>
					<dim>5</dim>
					<dim>24</dim>
				</port>
				<port id="1">
					<dim>3</dim>
				</port>
			</input>
			<output>
				<port id="2">
					<dim>1</dim>
					<dim>150</dim>
					<dim>4</dim>
				</port>
			</output>
		</layer>
		<layer id="123" name="FeatureExtractor/MobilenetV2/layer_19_1_Conv2d_3_1x1_128/BatchNorm/batchnorm/mul_1" precision="FP32" type="Convolution">
			<data auto_pad="same_upper" dilations="1,1" group="1" kernel="1,1" output="128" pads_begin="0,0" pads_end="0,0" strides="1,1"/>
			<input>
				<port id="0">
					<dim>1</dim>
					<dim>512</dim>
					<dim>5</dim>
					<dim>5</dim>
				</port>
			</input>
			<output>
				<port id="3">
					<dim>1</dim>
					<dim>128</dim>
					<dim>5</dim>
					<dim>5</dim>
				</port>
			</output>
			<blobs>
				<weights offset="10970236" size="262144"/>
				<biases offset="11232380" size="512"/>
			</blobs>
		</layer>
		<layer id="124" name="FeatureExtractor/MobilenetV2/layer_19_1_Conv2d_3_1x1_128/Relu6" precision="FP32" type="Clamp">
			<data max="6" min="0"/>
			<input>
				<port id="0">
					<dim>1</dim>
					<dim>128</dim>
					<dim>5</dim>
					<dim>5</dim>
				</port>
			</input>
			<output>
				<port id="1">
					<dim>1</dim>
					<dim>128</dim>
					<dim>5</dim>
					<dim>5</dim>
				</port>
			</output>
		</layer>
		<layer id="125" name="FeatureExtractor/MobilenetV2/layer_19_2_Conv2d_3_3x3_s2_256_depthwise/depthwise" precision="FP32" type="Convolution">
			<data auto_pad="same_upper" dilations="1,1" group="128" kernel="3,3" output="128" pads_begin="1,1" pads_end="1,1" strides="2,2"/>
			<input>
				<port id="0">
					<dim>1</dim>
					<dim>128</dim>
					<dim>5</dim>
					<dim>5</dim>
				</port>
			</input>
			<output>
				<port id="3">
					<dim>1</dim>
					<dim>128</dim>
					<dim>3</dim>
					<dim>3</dim>
				</port>
			</output>
			<blobs>
				<weights offset="11232892" size="4608"/>
				<biases offset="11237500" size="512"/>
			</blobs>
		</layer>
		<layer id="126" name="FeatureExtractor/MobilenetV2/layer_19_2_Conv2d_3_3x3_s2_256_depthwise/Relu6" precision="FP32" type="Clamp">
			<data max="6" min="0"/>
			<input>
				<port id="0">
					<dim>1</dim>
					<dim>128</dim>
					<dim>3</dim>
					<dim>3</dim>
				</port>
			</input>
			<output>
				<port id="1">
					<dim>1</dim>
					<dim>128</dim>
					<dim>3</dim>
					<dim>3</dim>
				</port>
			</output>
		</layer>
		<layer id="127" name="FeatureExtractor/MobilenetV2/layer_19_2_Conv2d_3_3x3_s2_256/BatchNorm/batchnorm/mul_1" precision="FP32" type="Convolution">
			<data auto_pad="same_upper" dilations="1,1" group="1" kernel="1,1" output="256" pads_begin="0,0" pads_end="0,0" strides="1,1"/>
			<input>
				<port id="0">
					<dim>1</dim>
					<dim>128</dim>
					<dim>3</dim>
					<dim>3</dim>
				</port>
			</input>
			<output>
				<port id="3">
					<dim>1</dim>
					<dim>256</dim>
					<dim>3</dim>
					<dim>3</dim>
				</port>
			</output>
			<blobs>
				<weights offset="11238012" size="131072"/>
				<biases offset="11369084" size="1024"/>
			</blobs>
		</layer>
		<layer id="128" name="FeatureExtractor/MobilenetV2/layer_19_2_Conv2d_3_3x3_s2_256/Relu6" precision="FP32" type="Clamp">
			<data max="6" min="0"/>
			<input>
				<port id="0">
					<dim>1</dim>
					<dim>256</dim>
					<dim>3</dim>
					<dim>3</dim>
				</port>
			</input>
			<output>
				<port id="1">
					<dim>1</dim>
					<dim>256</dim>
					<dim>3</dim>
					<dim>3</dim>
				</port>
			</output>
		</layer>
		<layer id="129" name="BoxPredictor_3/BoxEncodingPredictor_depthwise/depthwise" precision="FP32" type="Convolution">
			<data auto_pad="same_upper" dilations="1,1" group="256" kernel="3,3" output="256" pads_begin="1,1" pads_end="1,1" strides="1,1"/>
			<input>
				<port id="0">
					<dim>1</dim>
					<dim>256</dim>
					<dim>3</dim>
					<dim>3</dim>
				</port>
			</input>
			<output>
				<port id="3">
					<dim>1</dim>
					<dim>256</dim>
					<dim>3</dim>
					<dim>3</dim>
				</port>
			</output>
			<blobs>
				<weights offset="11370108" size="9216"/>
				<biases offset="11379324" size="1024"/>
			</blobs>
		</layer>
		<layer id="130" name="BoxPredictor_3/BoxEncodingPredictor_depthwise/Relu6" precision="FP32" type="Clamp">
			<data max="6" min="0"/>
			<input>
				<port id="0">
					<dim>1</dim>
					<dim>256</dim>
					<dim>3</dim>
					<dim>3</dim>
				</port>
			</input>
			<output>
				<port id="1">
					<dim>1</dim>
					<dim>256</dim>
					<dim>3</dim>
					<dim>3</dim>
				</port>
			</output>
		</layer>
		<layer id="131" name="BoxPredictor_3/BoxEncodingPredictor/Conv2D" precision="FP32" type="Convolution">
			<data auto_pad="same_upper" dilations="1,1" group="1" kernel="1,1" output="24" pads_begin="0,0" pads_end="0,0" strides="1,1"/>
			<input>
				<port id="0">
					<dim>1</dim>
					<dim>256</dim>
					<dim>3</dim>
					<dim>3</dim>
				</port>
			</input>
			<output>
				<port id="3">
					<dim>1</dim>
					<dim>24</dim>
					<dim>3</dim>
					<dim>3</dim>
				</port>
			</output>
			<blobs>
				<weights offset="11380348" size="24576"/>
				<biases offset="11404924" size="96"/>
			</blobs>
		</layer>
		<layer id="132" name="BoxPredictor_3/BoxEncodingPredictor/Conv2D/Transpose" precision="FP32" type="Permute">
			<data order="0,2,3,1"/>
			<input>
				<port id="0">
					<dim>1</dim>
					<dim>24</dim>
					<dim>3</dim>
					<dim>3</dim>
				</port>
			</input>
			<output>
				<port id="1">
					<dim>1</dim>
					<dim>3</dim>
					<dim>3</dim>
					<dim>24</dim>
				</port>
			</output>
		</layer>
		<layer id="133" name="6432/Output_0/Data__const" precision="I32" type="Const">
			<output>
				<port id="1">
					<dim>3</dim>
				</port>
			</output>
			<blobs>
				<custom offset="2412080" size="12"/>
			</blobs>
		</layer>
		<layer id="134" name="BoxPredictor_3/BoxEncodingPredictor/BiasAdd/Reshape" precision="FP32" type="Reshape">
			<input>
				<port id="0">
					<dim>1</dim>
					<dim>3</dim>
					<dim>3</dim>
					<dim>24</dim>
				</port>
				<port id="1">
					<dim>3</dim>
				</port>
			</input>
			<output>
				<port id="2">
					<dim>1</dim>
					<dim>54</dim>
					<dim>4</dim>
				</port>
			</output>
		</layer>
		<layer id="135" name="FeatureExtractor/MobilenetV2/layer_19_1_Conv2d_4_1x1_128/BatchNorm/batchnorm/mul_1" precision="FP32" type="Convolution">
			<data auto_pad="same_upper" dilations="1,1" group="1" kernel="1,1" output="128" pads_begin="0,0" pads_end="0,0" strides="1,1"/>
			<input>
				<port id="0">
					<dim>1</dim>
					<dim>256</dim>
					<dim>3</dim>
					<dim>3</dim>
				</port>
			</input>
			<output>
				<port id="3">
					<dim>1</dim>
					<dim>128</dim>
					<dim>3</dim>
					<dim>3</dim>
				</port>
			</output>
			<blobs>
				<weights offset="11405020" size="131072"/>
				<biases offset="11536092" size="512"/>
			</blobs>
		</layer>
		<layer id="136" name="FeatureExtractor/MobilenetV2/layer_19_1_Conv2d_4_1x1_128/Relu6" precision="FP32" type="Clamp">
			<data max="6" min="0"/>
			<input>
				<port id="0">
					<dim>1</dim>
					<dim>128</dim>
					<dim>3</dim>
					<dim>3</dim>
				</port>
			</input>
			<output>
				<port id="1">
					<dim>1</dim>
					<dim>128</dim>
					<dim>3</dim>
					<dim>3</dim>
				</port>
			</output>
		</layer>
		<layer id="137" name="FeatureExtractor/MobilenetV2/layer_19_2_Conv2d_4_3x3_s2_256_depthwise/depthwise" precision="FP32" type="Convolution">
			<data auto_pad="same_upper" dilations="1,1" group="128" kernel="3,3" output="128" pads_begin="1,1" pads_end="1,1" strides="2,2"/>
			<input>
				<port id="0">
					<dim>1</dim>
					<dim>128</dim>
					<dim>3</dim>
					<dim>3</dim>
				</port>
			</input>
			<output>
				<port id="3">
					<dim>1</dim>
					<dim>128</dim>
					<dim>2</dim>
					<dim>2</dim>
				</port>
			</output>
			<blobs>
				<weights offset="11536604" size="4608"/>
				<biases offset="11541212" size="512"/>
			</blobs>
		</layer>
		<layer id="138" name="FeatureExtractor/MobilenetV2/layer_19_2_Conv2d_4_3x3_s2_256_depthwise/Relu6" precision="FP32" type="Clamp">
			<data max="6" min="0"/>
			<input>
				<port id="0">
					<dim>1</dim>
					<dim>128</dim>
					<dim>2</dim>
					<dim>2</dim>
				</port>
			</input>
			<output>
				<port id="1">
					<dim>1</dim>
					<dim>128</dim>
					<dim>2</dim>
					<dim>2</dim>
				</port>
			</output>
		</layer>
		<layer id="139" name="FeatureExtractor/MobilenetV2/layer_19_2_Conv2d_4_3x3_s2_256/BatchNorm/batchnorm/mul_1" precision="FP32" type="Convolution">
			<data auto_pad="same_upper" dilations="1,1" group="1" kernel="1,1" output="256" pads_begin="0,0" pads_end="0,0" strides="1,1"/>
			<input>
				<port id="0">
					<dim>1</dim>
					<dim>128</dim>
					<dim>2</dim>
					<dim>2</dim>
				</port>
			</input>
			<output>
				<port id="3">
					<dim>1</dim>
					<dim>256</dim>
					<dim>2</dim>
					<dim>2</dim>
				</port>
			</output>
			<blobs>
				<weights offset="11541724" size="131072"/>
				<biases offset="11672796" size="1024"/>
			</blobs>
		</layer>
		<layer id="140" name="FeatureExtractor/MobilenetV2/layer_19_2_Conv2d_4_3x3_s2_256/Relu6" precision="FP32" type="Clamp">
			<data max="6" min="0"/>
			<input>
				<port id="0">
					<dim>1</dim>
					<dim>256</dim>
					<dim>2</dim>
					<dim>2</dim>
				</port>
			</input>
			<output>
				<port id="1">
					<dim>1</dim>
					<dim>256</dim>
					<dim>2</dim>
					<dim>2</dim>
				</port>
			</output>
		</layer>
		<layer id="141" name="BoxPredictor_4/BoxEncodingPredictor_depthwise/depthwise" precision="FP32" type="Convolution">
			<data auto_pad="same_upper" dilations="1,1" group="256" kernel="3,3" output="256" pads_begin="1,1" pads_end="1,1" strides="1,1"/>
			<input>
				<port id="0">
					<dim>1</dim>
					<dim>256</dim>
					<dim>2</dim>
					<dim>2</dim>
				</port>
			</input>
			<output>
				<port id="3">
					<dim>1</dim>
					<dim>256</dim>
					<dim>2</dim>
					<dim>2</dim>
				</port>
			</output>
			<blobs>
				<weights offset="11673820" size="9216"/>
				<biases offset="11683036" size="1024"/>
			</blobs>
		</layer>
		<layer id="142" name="BoxPredictor_4/BoxEncodingPredictor_depthwise/Relu6" precision="FP32" type="Clamp">
			<data max="6" min="0"/>
			<input>
				<port id="0">
					<dim>1</dim>
					<dim>256</dim>
					<dim>2</dim>
					<dim>2</dim>
				</port>
			</input>
			<output>
				<port id="1">
					<dim>1</dim>
					<dim>256</dim>
					<dim>2</dim>
					<dim>2</dim>
				</port>
			</output>
		</layer>
		<layer id="143" name="BoxPredictor_4/BoxEncodingPredictor/Conv2D" precision="FP32" type="Convolution">
			<data auto_pad="same_upper" dilations="1,1" group="1" kernel="1,1" output="24" pads_begin="0,0" pads_end="0,0" strides="1,1"/>
			<input>
				<port id="0">
					<dim>1</dim>
					<dim>256</dim>
					<dim>2</dim>
					<dim>2</dim>
				</port>
			</input>
			<output>
				<port id="3">
					<dim>1</dim>
					<dim>24</dim>
					<dim>2</dim>
					<dim>2</dim>
				</port>
			</output>
			<blobs>
				<weights offset="11684060" size="24576"/>
				<biases offset="11708636" size="96"/>
			</blobs>
		</layer>
		<layer id="144" name="BoxPredictor_4/BoxEncodingPredictor/Conv2D/Transpose" precision="FP32" type="Permute">
			<data order="0,2,3,1"/>
			<input>
				<port id="0">
					<dim>1</dim>
					<dim>24</dim>
					<dim>2</dim>
					<dim>2</dim>
				</port>
			</input>
			<output>
				<port id="1">
					<dim>1</dim>
					<dim>2</dim>
					<dim>2</dim>
					<dim>24</dim>
				</port>
			</output>
		</layer>
		<layer id="145" name="6436/Output_0/Data__const" precision="I32" type="Const">
			<output>
				<port id="1">
					<dim>3</dim>
				</port>
			</output>
			<blobs>
				<custom offset="2412080" size="12"/>
			</blobs>
		</layer>
		<layer id="146" name="BoxPredictor_4/BoxEncodingPredictor/BiasAdd/Reshape" precision="FP32" type="Reshape">
			<input>
				<port id="0">
					<dim>1</dim>
					<dim>2</dim>
					<dim>2</dim>
					<dim>24</dim>
				</port>
				<port id="1">
					<dim>3</dim>
				</port>
			</input>
			<output>
				<port id="2">
					<dim>1</dim>
					<dim>24</dim>
					<dim>4</dim>
				</port>
			</output>
		</layer>
		<layer id="147" name="FeatureExtractor/MobilenetV2/layer_19_1_Conv2d_5_1x1_64/BatchNorm/batchnorm/mul_1" precision="FP32" type="Convolution">
			<data auto_pad="same_upper" dilations="1,1" group="1" kernel="1,1" output="64" pads_begin="0,0" pads_end="0,0" strides="1,1"/>
			<input>
				<port id="0">
					<dim>1</dim>
					<dim>256</dim>
					<dim>2</dim>
					<dim>2</dim>
				</port>
			</input>
			<output>
				<port id="3">
					<dim>1</dim>
					<dim>64</dim>
					<dim>2</dim>
					<dim>2</dim>
				</port>
			</output>
			<blobs>
				<weights offset="11708732" size="65536"/>
				<biases offset="11774268" size="256"/>
			</blobs>
		</layer>
		<layer id="148" name="FeatureExtractor/MobilenetV2/layer_19_1_Conv2d_5_1x1_64/Relu6" precision="FP32" type="Clamp">
			<data max="6" min="0"/>
			<input>
				<port id="0">
					<dim>1</dim>
					<dim>64</dim>
					<dim>2</dim>
					<dim>2</dim>
				</port>
			</input>
			<output>
				<port id="1">
					<dim>1</dim>
					<dim>64</dim>
					<dim>2</dim>
					<dim>2</dim>
				</port>
			</output>
		</layer>
		<layer id="149" name="FeatureExtractor/MobilenetV2/layer_19_2_Conv2d_5_3x3_s2_128_depthwise/depthwise" precision="FP32" type="Convolution">
			<data auto_pad="same_upper" dilations="1,1" group="64" kernel="3,3" output="64" pads_begin="0,0" pads_end="1,1" strides="2,2"/>
			<input>
				<port id="0">
					<dim>1</dim>
					<dim>64</dim>
					<dim>2</dim>
					<dim>2</dim>
				</port>
			</input>
			<output>
				<port id="3">
					<dim>1</dim>
					<dim>64</dim>
					<dim>1</dim>
					<dim>1</dim>
				</port>
			</output>
			<blobs>
				<weights offset="11774524" size="2304"/>
				<biases offset="11776828" size="256"/>
			</blobs>
		</layer>
		<layer id="150" name="FeatureExtractor/MobilenetV2/layer_19_2_Conv2d_5_3x3_s2_128_depthwise/Relu6" precision="FP32" type="Clamp">
			<data max="6" min="0"/>
			<input>
				<port id="0">
					<dim>1</dim>
					<dim>64</dim>
					<dim>1</dim>
					<dim>1</dim>
				</port>
			</input>
			<output>
				<port id="1">
					<dim>1</dim>
					<dim>64</dim>
					<dim>1</dim>
					<dim>1</dim>
				</port>
			</output>
		</layer>
		<layer id="151" name="FeatureExtractor/MobilenetV2/layer_19_2_Conv2d_5_3x3_s2_128/BatchNorm/batchnorm/mul_1" precision="FP32" type="Convolution">
			<data auto_pad="same_upper" dilations="1,1" group="1" kernel="1,1" output="128" pads_begin="0,0" pads_end="0,0" strides="1,1"/>
			<input>
				<port id="0">
					<dim>1</dim>
					<dim>64</dim>
					<dim>1</dim>
					<dim>1</dim>
				</port>
			</input>
			<output>
				<port id="3">
					<dim>1</dim>
					<dim>128</dim>
					<dim>1</dim>
					<dim>1</dim>
				</port>
			</output>
			<blobs>
				<weights offset="11777084" size="32768"/>
				<biases offset="11809852" size="512"/>
			</blobs>
		</layer>
		<layer id="152" name="FeatureExtractor/MobilenetV2/layer_19_2_Conv2d_5_3x3_s2_128/Relu6" precision="FP32" type="Clamp">
			<data max="6" min="0"/>
			<input>
				<port id="0">
					<dim>1</dim>
					<dim>128</dim>
					<dim>1</dim>
					<dim>1</dim>
				</port>
			</input>
			<output>
				<port id="1">
					<dim>1</dim>
					<dim>128</dim>
					<dim>1</dim>
					<dim>1</dim>
				</port>
			</output>
		</layer>
		<layer id="153" name="BoxPredictor_5/BoxEncodingPredictor_depthwise/depthwise" precision="FP32" type="Convolution">
			<data auto_pad="same_upper" dilations="1,1" group="128" kernel="3,3" output="128" pads_begin="1,1" pads_end="1,1" strides="1,1"/>
			<input>
				<port id="0">
					<dim>1</dim>
					<dim>128</dim>
					<dim>1</dim>
					<dim>1</dim>
				</port>
			</input>
			<output>
				<port id="3">
					<dim>1</dim>
					<dim>128</dim>
					<dim>1</dim>
					<dim>1</dim>
				</port>
			</output>
			<blobs>
				<weights offset="11810364" size="4608"/>
				<biases offset="11814972" size="512"/>
			</blobs>
		</layer>
		<layer id="154" name="BoxPredictor_5/BoxEncodingPredictor_depthwise/Relu6" precision="FP32" type="Clamp">
			<data max="6" min="0"/>
			<input>
				<port id="0">
					<dim>1</dim>
					<dim>128</dim>
					<dim>1</dim>
					<dim>1</dim>
				</port>
			</input>
			<output>
				<port id="1">
					<dim>1</dim>
					<dim>128</dim>
					<dim>1</dim>
					<dim>1</dim>
				</port>
			</output>
		</layer>
		<layer id="155" name="BoxPredictor_5/BoxEncodingPredictor/Conv2D" precision="FP32" type="Convolution">
			<data auto_pad="same_upper" dilations="1,1" group="1" kernel="1,1" output="24" pads_begin="0,0" pads_end="0,0" strides="1,1"/>
			<input>
				<port id="0">
					<dim>1</dim>
					<dim>128</dim>
					<dim>1</dim>
					<dim>1</dim>
				</port>
			</input>
			<output>
				<port id="3">
					<dim>1</dim>
					<dim>24</dim>
					<dim>1</dim>
					<dim>1</dim>
				</port>
			</output>
			<blobs>
				<weights offset="11815484" size="12288"/>
				<biases offset="11827772" size="96"/>
			</blobs>
		</layer>
		<layer id="156" name="BoxPredictor_5/BoxEncodingPredictor/Conv2D/Transpose" precision="FP32" type="Permute">
			<data order="0,2,3,1"/>
			<input>
				<port id="0">
					<dim>1</dim>
					<dim>24</dim>
					<dim>1</dim>
					<dim>1</dim>
				</port>
			</input>
			<output>
				<port id="1">
					<dim>1</dim>
					<dim>1</dim>
					<dim>1</dim>
					<dim>24</dim>
				</port>
			</output>
		</layer>
		<layer id="157" name="6440/Output_0/Data__const" precision="I32" type="Const">
			<output>
				<port id="1">
					<dim>3</dim>
				</port>
			</output>
			<blobs>
				<custom offset="2412080" size="12"/>
			</blobs>
		</layer>
		<layer id="158" name="BoxPredictor_5/BoxEncodingPredictor/BiasAdd/Reshape" precision="FP32" type="Reshape">
			<input>
				<port id="0">
					<dim>1</dim>
					<dim>1</dim>
					<dim>1</dim>
					<dim>24</dim>
				</port>
				<port id="1">
					<dim>3</dim>
				</port>
			</input>
			<output>
				<port id="2">
					<dim>1</dim>
					<dim>6</dim>
					<dim>4</dim>
				</port>
			</output>
		</layer>
		<layer id="159" name="concat" precision="FP32" type="Concat">
			<data axis="1"/>
			<input>
				<port id="0">
					<dim>1</dim>
					<dim>1083</dim>
					<dim>4</dim>
				</port>
				<port id="1">
					<dim>1</dim>
					<dim>600</dim>
					<dim>4</dim>
				</port>
				<port id="2">
					<dim>1</dim>
					<dim>150</dim>
					<dim>4</dim>
				</port>
				<port id="3">
					<dim>1</dim>
					<dim>54</dim>
					<dim>4</dim>
				</port>
				<port id="4">
					<dim>1</dim>
					<dim>24</dim>
					<dim>4</dim>
				</port>
				<port id="5">
					<dim>1</dim>
					<dim>6</dim>
					<dim>4</dim>
				</port>
			</input>
			<output>
				<port id="6">
					<dim>1</dim>
					<dim>1917</dim>
					<dim>4</dim>
				</port>
			</output>
		</layer>
		<layer id="160" name="do_reshape_loc/value/Output_0/Data__const" precision="I32" type="Const">
			<output>
				<port id="1">
					<dim>2</dim>
				</port>
			</output>
			<blobs>
				<custom offset="11827868" size="8"/>
			</blobs>
		</layer>
		<layer id="161" name="do_reshape_loc" precision="FP32" type="Reshape">
			<input>
				<port id="0">
					<dim>1</dim>
					<dim>1917</dim>
					<dim>4</dim>
				</port>
				<port id="1">
					<dim>2</dim>
				</port>
			</input>
			<output>
				<port id="2">
					<dim>1</dim>
					<dim>7668</dim>
				</port>
			</output>
		</layer>
		<layer id="162" name="BoxPredictor_0/ClassPredictor_depthwise/depthwise" precision="FP32" type="Convolution">
			<data auto_pad="same_upper" dilations="1,1" group="576" kernel="3,3" output="576" pads_begin="1,1" pads_end="1,1" strides="1,1"/>
			<input>
				<port id="0">
					<dim>1</dim>
					<dim>576</dim>
					<dim>19</dim>
					<dim>19</dim>
				</port>
			</input>
			<output>
				<port id="3">
					<dim>1</dim>
					<dim>576</dim>
					<dim>19</dim>
					<dim>19</dim>
				</port>
			</output>
			<blobs>
				<weights offset="11827876" size="20736"/>
				<biases offset="11848612" size="2304"/>
			</blobs>
		</layer>
		<layer id="163" name="BoxPredictor_0/ClassPredictor_depthwise/Relu6" precision="FP32" type="Clamp">
			<data max="6" min="0"/>
			<input>
				<port id="0">
					<dim>1</dim>
					<dim>576</dim>
					<dim>19</dim>
					<dim>19</dim>
				</port>
			</input>
			<output>
				<port id="1">
					<dim>1</dim>
					<dim>576</dim>
					<dim>19</dim>
					<dim>19</dim>
				</port>
			</output>
		</layer>
		<layer id="164" name="BoxPredictor_0/ClassPredictor/Conv2D" precision="FP32" type="Convolution">
			<data auto_pad="same_upper" dilations="1,1" group="1" kernel="1,1" output="273" pads_begin="0,0" pads_end="0,0" strides="1,1"/>
			<input>
				<port id="0">
					<dim>1</dim>
					<dim>576</dim>
					<dim>19</dim>
					<dim>19</dim>
				</port>
			</input>
			<output>
				<port id="3">
					<dim>1</dim>
					<dim>273</dim>
					<dim>19</dim>
					<dim>19</dim>
				</port>
			</output>
			<blobs>
				<weights offset="11850916" size="628992"/>
				<biases offset="12479908" size="1092"/>
			</blobs>
		</layer>
		<layer id="165" name="BoxPredictor_0/ClassPredictor/Conv2D/Transpose" precision="FP32" type="Permute">
			<data order="0,2,3,1"/>
			<input>
				<port id="0">
					<dim>1</dim>
					<dim>273</dim>
					<dim>19</dim>
					<dim>19</dim>
				</port>
			</input>
			<output>
				<port id="1">
					<dim>1</dim>
					<dim>19</dim>
					<dim>19</dim>
					<dim>273</dim>
				</port>
			</output>
		</layer>
		<layer id="166" name="6422/Output_0/Data__const" precision="I32" type="Const">
			<output>
				<port id="1">
					<dim>3</dim>
				</port>
			</output>
			<blobs>
				<custom offset="12481000" size="12"/>
			</blobs>
		</layer>
		<layer id="167" name="BoxPredictor_0/ClassPredictor/BiasAdd/Reshape" precision="FP32" type="Reshape">
			<input>
				<port id="0">
					<dim>1</dim>
					<dim>19</dim>
					<dim>19</dim>
					<dim>273</dim>
				</port>
				<port id="1">
					<dim>3</dim>
				</port>
			</input>
			<output>
				<port id="2">
					<dim>1</dim>
					<dim>1083</dim>
					<dim>91</dim>
				</port>
			</output>
		</layer>
		<layer id="168" name="BoxPredictor_1/ClassPredictor_depthwise/depthwise" precision="FP32" type="Convolution">
			<data auto_pad="same_upper" dilations="1,1" group="1280" kernel="3,3" output="1280" pads_begin="1,1" pads_end="1,1" strides="1,1"/>
			<input>
				<port id="0">
					<dim>1</dim>
					<dim>1280</dim>
					<dim>10</dim>
					<dim>10</dim>
				</port>
			</input>
			<output>
				<port id="3">
					<dim>1</dim>
					<dim>1280</dim>
					<dim>10</dim>
					<dim>10</dim>
				</port>
			</output>
			<blobs>
				<weights offset="12481012" size="46080"/>
				<biases offset="12527092" size="5120"/>
			</blobs>
		</layer>
		<layer id="169" name="BoxPredictor_1/ClassPredictor_depthwise/Relu6" precision="FP32" type="Clamp">
			<data max="6" min="0"/>
			<input>
				<port id="0">
					<dim>1</dim>
					<dim>1280</dim>
					<dim>10</dim>
					<dim>10</dim>
				</port>
			</input>
			<output>
				<port id="1">
					<dim>1</dim>
					<dim>1280</dim>
					<dim>10</dim>
					<dim>10</dim>
				</port>
			</output>
		</layer>
		<layer id="170" name="BoxPredictor_1/ClassPredictor/Conv2D" precision="FP32" type="Convolution">
			<data auto_pad="same_upper" dilations="1,1" group="1" kernel="1,1" output="546" pads_begin="0,0" pads_end="0,0" strides="1,1"/>
			<input>
				<port id="0">
					<dim>1</dim>
					<dim>1280</dim>
					<dim>10</dim>
					<dim>10</dim>
				</port>
			</input>
			<output>
				<port id="3">
					<dim>1</dim>
					<dim>546</dim>
					<dim>10</dim>
					<dim>10</dim>
				</port>
			</output>
			<blobs>
				<weights offset="12532212" size="2795520"/>
				<biases offset="15327732" size="2184"/>
			</blobs>
		</layer>
		<layer id="171" name="BoxPredictor_1/ClassPredictor/Conv2D/Transpose" precision="FP32" type="Permute">
			<data order="0,2,3,1"/>
			<input>
				<port id="0">
					<dim>1</dim>
					<dim>546</dim>
					<dim>10</dim>
					<dim>10</dim>
				</port>
			</input>
			<output>
				<port id="1">
					<dim>1</dim>
					<dim>10</dim>
					<dim>10</dim>
					<dim>546</dim>
				</port>
			</output>
		</layer>
		<layer id="172" name="6426/Output_0/Data__const" precision="I32" type="Const">
			<output>
				<port id="1">
					<dim>3</dim>
				</port>
			</output>
			<blobs>
				<custom offset="12481000" size="12"/>
			</blobs>
		</layer>
		<layer id="173" name="BoxPredictor_1/ClassPredictor/BiasAdd/Reshape" precision="FP32" type="Reshape">
			<input>
				<port id="0">
					<dim>1</dim>
					<dim>10</dim>
					<dim>10</dim>
					<dim>546</dim>
				</port>
				<port id="1">
					<dim>3</dim>
				</port>
			</input>
			<output>
				<port id="2">
					<dim>1</dim>
					<dim>600</dim>
					<dim>91</dim>
				</port>
			</output>
		</layer>
		<layer id="174" name="BoxPredictor_2/ClassPredictor_depthwise/depthwise" precision="FP32" type="Convolution">
			<data auto_pad="same_upper" dilations="1,1" group="512" kernel="3,3" output="512" pads_begin="1,1" pads_end="1,1" strides="1,1"/>
			<input>
				<port id="0">
					<dim>1</dim>
					<dim>512</dim>
					<dim>5</dim>
					<dim>5</dim>
				</port>
			</input>
			<output>
				<port id="3">
					<dim>1</dim>
					<dim>512</dim>
					<dim>5</dim>
					<dim>5</dim>
				</port>
			</output>
			<blobs>
				<weights offset="15329916" size="18432"/>
				<biases offset="15348348" size="2048"/>
			</blobs>
		</layer>
		<layer id="175" name="BoxPredictor_2/ClassPredictor_depthwise/Relu6" precision="FP32" type="Clamp">
			<data max="6" min="0"/>
			<input>
				<port id="0">
					<dim>1</dim>
					<dim>512</dim>
					<dim>5</dim>
					<dim>5</dim>
				</port>
			</input>
			<output>
				<port id="1">
					<dim>1</dim>
					<dim>512</dim>
					<dim>5</dim>
					<dim>5</dim>
				</port>
			</output>
		</layer>
		<layer id="176" name="BoxPredictor_2/ClassPredictor/Conv2D" precision="FP32" type="Convolution">
			<data auto_pad="same_upper" dilations="1,1" group="1" kernel="1,1" output="546" pads_begin="0,0" pads_end="0,0" strides="1,1"/>
			<input>
				<port id="0">
					<dim>1</dim>
					<dim>512</dim>
					<dim>5</dim>
					<dim>5</dim>
				</port>
			</input>
			<output>
				<port id="3">
					<dim>1</dim>
					<dim>546</dim>
					<dim>5</dim>
					<dim>5</dim>
				</port>
			</output>
			<blobs>
				<weights offset="15350396" size="1118208"/>
				<biases offset="16468604" size="2184"/>
			</blobs>
		</layer>
		<layer id="177" name="BoxPredictor_2/ClassPredictor/Conv2D/Transpose" precision="FP32" type="Permute">
			<data order="0,2,3,1"/>
			<input>
				<port id="0">
					<dim>1</dim>
					<dim>546</dim>
					<dim>5</dim>
					<dim>5</dim>
				</port>
			</input>
			<output>
				<port id="1">
					<dim>1</dim>
					<dim>5</dim>
					<dim>5</dim>
					<dim>546</dim>
				</port>
			</output>
		</layer>
		<layer id="178" name="6430/Output_0/Data__const" precision="I32" type="Const">
			<output>
				<port id="1">
					<dim>3</dim>
				</port>
			</output>
			<blobs>
				<custom offset="12481000" size="12"/>
			</blobs>
		</layer>
		<layer id="179" name="BoxPredictor_2/ClassPredictor/BiasAdd/Reshape" precision="FP32" type="Reshape">
			<input>
				<port id="0">
					<dim>1</dim>
					<dim>5</dim>
					<dim>5</dim>
					<dim>546</dim>
				</port>
				<port id="1">
					<dim>3</dim>
				</port>
			</input>
			<output>
				<port id="2">
					<dim>1</dim>
					<dim>150</dim>
					<dim>91</dim>
				</port>
			</output>
		</layer>
		<layer id="180" name="BoxPredictor_3/ClassPredictor_depthwise/depthwise" precision="FP32" type="Convolution">
			<data auto_pad="same_upper" dilations="1,1" group="256" kernel="3,3" output="256" pads_begin="1,1" pads_end="1,1" strides="1,1"/>
			<input>
				<port id="0">
					<dim>1</dim>
					<dim>256</dim>
					<dim>3</dim>
					<dim>3</dim>
				</port>
			</input>
			<output>
				<port id="3">
					<dim>1</dim>
					<dim>256</dim>
					<dim>3</dim>
					<dim>3</dim>
				</port>
			</output>
			<blobs>
				<weights offset="16470788" size="9216"/>
				<biases offset="16480004" size="1024"/>
			</blobs>
		</layer>
		<layer id="181" name="BoxPredictor_3/ClassPredictor_depthwise/Relu6" precision="FP32" type="Clamp">
			<data max="6" min="0"/>
			<input>
				<port id="0">
					<dim>1</dim>
					<dim>256</dim>
					<dim>3</dim>
					<dim>3</dim>
				</port>
			</input>
			<output>
				<port id="1">
					<dim>1</dim>
					<dim>256</dim>
					<dim>3</dim>
					<dim>3</dim>
				</port>
			</output>
		</layer>
		<layer id="182" name="BoxPredictor_3/ClassPredictor/Conv2D" precision="FP32" type="Convolution">
			<data auto_pad="same_upper" dilations="1,1" group="1" kernel="1,1" output="546" pads_begin="0,0" pads_end="0,0" strides="1,1"/>
			<input>
				<port id="0">
					<dim>1</dim>
					<dim>256</dim>
					<dim>3</dim>
					<dim>3</dim>
				</port>
			</input>
			<output>
				<port id="3">
					<dim>1</dim>
					<dim>546</dim>
					<dim>3</dim>
					<dim>3</dim>
				</port>
			</output>
			<blobs>
				<weights offset="16481028" size="559104"/>
				<biases offset="17040132" size="2184"/>
			</blobs>
		</layer>
		<layer id="183" name="BoxPredictor_3/ClassPredictor/Conv2D/Transpose" precision="FP32" type="Permute">
			<data order="0,2,3,1"/>
			<input>
				<port id="0">
					<dim>1</dim>
					<dim>546</dim>
					<dim>3</dim>
					<dim>3</dim>
				</port>
			</input>
			<output>
				<port id="1">
					<dim>1</dim>
					<dim>3</dim>
					<dim>3</dim>
					<dim>546</dim>
				</port>
			</output>
		</layer>
		<layer id="184" name="6434/Output_0/Data__const" precision="I32" type="Const">
			<output>
				<port id="1">
					<dim>3</dim>
				</port>
			</output>
			<blobs>
				<custom offset="12481000" size="12"/>
			</blobs>
		</layer>
		<layer id="185" name="BoxPredictor_3/ClassPredictor/BiasAdd/Reshape" precision="FP32" type="Reshape">
			<input>
				<port id="0">
					<dim>1</dim>
					<dim>3</dim>
					<dim>3</dim>
					<dim>546</dim>
				</port>
				<port id="1">
					<dim>3</dim>
				</port>
			</input>
			<output>
				<port id="2">
					<dim>1</dim>
					<dim>54</dim>
					<dim>91</dim>
				</port>
			</output>
		</layer>
		<layer id="186" name="BoxPredictor_4/ClassPredictor_depthwise/depthwise" precision="FP32" type="Convolution">
			<data auto_pad="same_upper" dilations="1,1" group="256" kernel="3,3" output="256" pads_begin="1,1" pads_end="1,1" strides="1,1"/>
			<input>
				<port id="0">
					<dim>1</dim>
					<dim>256</dim>
					<dim>2</dim>
					<dim>2</dim>
				</port>
			</input>
			<output>
				<port id="3">
					<dim>1</dim>
					<dim>256</dim>
					<dim>2</dim>
					<dim>2</dim>
				</port>
			</output>
			<blobs>
				<weights offset="17042316" size="9216"/>
				<biases offset="17051532" size="1024"/>
			</blobs>
		</layer>
		<layer id="187" name="BoxPredictor_4/ClassPredictor_depthwise/Relu6" precision="FP32" type="Clamp">
			<data max="6" min="0"/>
			<input>
				<port id="0">
					<dim>1</dim>
					<dim>256</dim>
					<dim>2</dim>
					<dim>2</dim>
				</port>
			</input>
			<output>
				<port id="1">
					<dim>1</dim>
					<dim>256</dim>
					<dim>2</dim>
					<dim>2</dim>
				</port>
			</output>
		</layer>
		<layer id="188" name="BoxPredictor_4/ClassPredictor/Conv2D" precision="FP32" type="Convolution">
			<data auto_pad="same_upper" dilations="1,1" group="1" kernel="1,1" output="546" pads_begin="0,0" pads_end="0,0" strides="1,1"/>
			<input>
				<port id="0">
					<dim>1</dim>
					<dim>256</dim>
					<dim>2</dim>
					<dim>2</dim>
				</port>
			</input>
			<output>
				<port id="3">
					<dim>1</dim>
					<dim>546</dim>
					<dim>2</dim>
					<dim>2</dim>
				</port>
			</output>
			<blobs>
				<weights offset="17052556" size="559104"/>
				<biases offset="17611660" size="2184"/>
			</blobs>
		</layer>
		<layer id="189" name="BoxPredictor_4/ClassPredictor/Conv2D/Transpose" precision="FP32" type="Permute">
			<data order="0,2,3,1"/>
			<input>
				<port id="0">
					<dim>1</dim>
					<dim>546</dim>
					<dim>2</dim>
					<dim>2</dim>
				</port>
			</input>
			<output>
				<port id="1">
					<dim>1</dim>
					<dim>2</dim>
					<dim>2</dim>
					<dim>546</dim>
				</port>
			</output>
		</layer>
		<layer id="190" name="6438/Output_0/Data__const" precision="I32" type="Const">
			<output>
				<port id="1">
					<dim>3</dim>
				</port>
			</output>
			<blobs>
				<custom offset="12481000" size="12"/>
			</blobs>
		</layer>
		<layer id="191" name="BoxPredictor_4/ClassPredictor/BiasAdd/Reshape" precision="FP32" type="Reshape">
			<input>
				<port id="0">
					<dim>1</dim>
					<dim>2</dim>
					<dim>2</dim>
					<dim>546</dim>
				</port>
				<port id="1">
					<dim>3</dim>
				</port>
			</input>
			<output>
				<port id="2">
					<dim>1</dim>
					<dim>24</dim>
					<dim>91</dim>
				</port>
			</output>
		</layer>
		<layer id="192" name="BoxPredictor_5/ClassPredictor_depthwise/depthwise" precision="FP32" type="Convolution">
			<data auto_pad="same_upper" dilations="1,1" group="128" kernel="3,3" output="128" pads_begin="1,1" pads_end="1,1" strides="1,1"/>
			<input>
				<port id="0">
					<dim>1</dim>
					<dim>128</dim>
					<dim>1</dim>
					<dim>1</dim>
				</port>
			</input>
			<output>
				<port id="3">
					<dim>1</dim>
					<dim>128</dim>
					<dim>1</dim>
					<dim>1</dim>
				</port>
			</output>
			<blobs>
				<weights offset="17613844" size="4608"/>
				<biases offset="17618452" size="512"/>
			</blobs>
		</layer>
		<layer id="193" name="BoxPredictor_5/ClassPredictor_depthwise/Relu6" precision="FP32" type="Clamp">
			<data max="6" min="0"/>
			<input>
				<port id="0">
					<dim>1</dim>
					<dim>128</dim>
					<dim>1</dim>
					<dim>1</dim>
				</port>
			</input>
			<output>
				<port id="1">
					<dim>1</dim>
					<dim>128</dim>
					<dim>1</dim>
					<dim>1</dim>
				</port>
			</output>
		</layer>
		<layer id="194" name="BoxPredictor_5/ClassPredictor/Conv2D" precision="FP32" type="Convolution">
			<data auto_pad="same_upper" dilations="1,1" group="1" kernel="1,1" output="546" pads_begin="0,0" pads_end="0,0" strides="1,1"/>
			<input>
				<port id="0">
					<dim>1</dim>
					<dim>128</dim>
					<dim>1</dim>
					<dim>1</dim>
				</port>
			</input>
			<output>
				<port id="3">
					<dim>1</dim>
					<dim>546</dim>
					<dim>1</dim>
					<dim>1</dim>
				</port>
			</output>
			<blobs>
				<weights offset="17618964" size="279552"/>
				<biases offset="17898516" size="2184"/>
			</blobs>
		</layer>
		<layer id="195" name="BoxPredictor_5/ClassPredictor/Conv2D/Transpose" precision="FP32" type="Permute">
			<data order="0,2,3,1"/>
			<input>
				<port id="0">
					<dim>1</dim>
					<dim>546</dim>
					<dim>1</dim>
					<dim>1</dim>
				</port>
			</input>
			<output>
				<port id="1">
					<dim>1</dim>
					<dim>1</dim>
					<dim>1</dim>
					<dim>546</dim>
				</port>
			</output>
		</layer>
		<layer id="196" name="6442/Output_0/Data__const" precision="I32" type="Const">
			<output>
				<port id="1">
					<dim>3</dim>
				</port>
			</output>
			<blobs>
				<custom offset="12481000" size="12"/>
			</blobs>
		</layer>
		<layer id="197" name="BoxPredictor_5/ClassPredictor/BiasAdd/Reshape" precision="FP32" type="Reshape">
			<input>
				<port id="0">
					<dim>1</dim>
					<dim>1</dim>
					<dim>1</dim>
					<dim>546</dim>
				</port>
				<port id="1">
					<dim>3</dim>
				</port>
			</input>
			<output>
				<port id="2">
					<dim>1</dim>
					<dim>6</dim>
					<dim>91</dim>
				</port>
			</output>
		</layer>
		<layer id="198" name="concat_1" precision="FP32" type="Concat">
			<data axis="1"/>
			<input>
				<port id="0">
					<dim>1</dim>
					<dim>1083</dim>
					<dim>91</dim>
				</port>
				<port id="1">
					<dim>1</dim>
					<dim>600</dim>
					<dim>91</dim>
				</port>
				<port id="2">
					<dim>1</dim>
					<dim>150</dim>
					<dim>91</dim>
				</port>
				<port id="3">
					<dim>1</dim>
					<dim>54</dim>
					<dim>91</dim>
				</port>
				<port id="4">
					<dim>1</dim>
					<dim>24</dim>
					<dim>91</dim>
				</port>
				<port id="5">
					<dim>1</dim>
					<dim>6</dim>
					<dim>91</dim>
				</port>
			</input>
			<output>
				<port id="6">
					<dim>1</dim>
					<dim>1917</dim>
					<dim>91</dim>
				</port>
			</output>
		</layer>
		<layer id="199" name="do_ExpandDims_conf/value/Output_0/Data__const" precision="I32" type="Const">
			<output>
				<port id="1">
					<dim>4</dim>
				</port>
			</output>
			<blobs>
				<custom offset="17900700" size="16"/>
			</blobs>
		</layer>
		<layer id="200" name="do_ExpandDims_conf" precision="FP32" type="Reshape">
			<input>
				<port id="0">
					<dim>1</dim>
					<dim>1917</dim>
					<dim>91</dim>
				</port>
				<port id="1">
					<dim>4</dim>
				</port>
			</input>
			<output>
				<port id="2">
					<dim>1</dim>
					<dim>1</dim>
					<dim>1917</dim>
					<dim>91</dim>
				</port>
			</output>
		</layer>
		<layer id="201" name="do_ExpandDims_conf/sigmoid" precision="FP32" type="Activation">
			<data type="sigmoid"/>
			<input>
				<port id="0">
					<dim>1</dim>
					<dim>1</dim>
					<dim>1917</dim>
					<dim>91</dim>
				</port>
			</input>
			<output>
				<port id="1">
					<dim>1</dim>
					<dim>1</dim>
					<dim>1917</dim>
					<dim>91</dim>
				</port>
			</output>
		</layer>
		<layer id="202" name="do_reshape_conf/value/Output_0/Data__const" precision="I32" type="Const">
			<output>
				<port id="1">
					<dim>2</dim>
				</port>
			</output>
			<blobs>
				<custom offset="11827868" size="8"/>
			</blobs>
		</layer>
		<layer id="203" name="do_reshape_conf" precision="FP32" type="Reshape">
			<input>
				<port id="0">
					<dim>1</dim>
					<dim>1</dim>
					<dim>1917</dim>
					<dim>91</dim>
				</port>
				<port id="1">
					<dim>2</dim>
				</port>
			</input>
			<output>
				<port id="2">
					<dim>1</dim>
					<dim>174447</dim>
				</port>
			</output>
		</layer>
		<layer id="204" name="PriorBoxClustered_0" precision="FP32" type="PriorBoxClustered">
			<data clip="0" flip="0" height="30.0,42.4264075033,84.8528150067" offset="0.5" variance="0.1,0.1,0.2,0.2" width="30.0,84.8528150067,42.4264075033"/>
			<input>
				<port id="0">
					<dim>1</dim>
					<dim>12</dim>
					<dim>19</dim>
					<dim>19</dim>
				</port>
				<port id="1">
					<dim>1</dim>
					<dim>3</dim>
					<dim>300</dim>
					<dim>300</dim>
				</port>
			</input>
			<output>
				<port id="2">
					<dim>1</dim>
					<dim>2</dim>
					<dim>4332</dim>
				</port>
			</output>
		</layer>
		<layer id="205" name="PriorBoxClustered_1" precision="FP32" type="PriorBoxClustered">
			<data clip="0" flip="0" height="105.0,74.2462120245,148.492424049,60.6217782649,181.874430252,125.499003606" offset="0.5" variance="0.1,0.1,0.2,0.2" width="105.0,148.492424049,74.2462120245,181.865334795,60.6187465972,125.499003606"/>
			<input>
				<port id="0">
					<dim>1</dim>
					<dim>24</dim>
					<dim>10</dim>
					<dim>10</dim>
				</port>
				<port id="1">
					<dim>1</dim>
					<dim>3</dim>
					<dim>300</dim>
					<dim>300</dim>
				</port>
			</input>
			<output>
				<port id="2">
					<dim>1</dim>
					<dim>2</dim>
					<dim>2400</dim>
				</port>
			</output>
		</layer>
		<layer id="206" name="PriorBoxClustered_2" precision="FP32" type="PriorBoxClustered">
			<data clip="0" flip="0" height="149.999999106,106.066016546,212.132033091,86.6025398622,259.820613098,171.026312471" offset="0.5" variance="0.1,0.1,0.2,0.2" width="149.999999106,212.132033091,106.066016546,259.807619587,86.5982089084,171.026312471"/>
			<input>
				<port id="0">
					<dim>1</dim>
					<dim>24</dim>
					<dim>5</dim>
					<dim>5</dim>
				</port>
				<port id="1">
					<dim>1</dim>
					<dim>3</dim>
					<dim>300</dim>
					<dim>300</dim>
				</port>
			</input>
			<output>
				<port id="2">
					<dim>1</dim>
					<dim>2</dim>
					<dim>600</dim>
				</port>
			</output>
		</layer>
		<layer id="207" name="PriorBoxClustered_3" precision="FP32" type="PriorBoxClustered">
			<data clip="0" flip="0" height="194.999998212,137.885821067,275.771642134,112.58330146,337.766795943,216.333074327" offset="0.5" variance="0.1,0.1,0.2,0.2" width="194.999998212,275.771642134,137.885821067,337.749904379,112.57767122,216.333074327"/>
			<input>
				<port id="0">
					<dim>1</dim>
					<dim>24</dim>
					<dim>3</dim>
					<dim>3</dim>
				</port>
				<port id="1">
					<dim>1</dim>
					<dim>3</dim>
					<dim>300</dim>
					<dim>300</dim>
				</port>
			</input>
			<output>
				<port id="2">
					<dim>1</dim>
					<dim>2</dim>
					<dim>216</dim>
				</port>
			</output>
		</layer>
		<layer id="208" name="PriorBoxClustered_4" precision="FP32" type="PriorBoxClustered">
			<data clip="0" flip="0" height="239.999997318,169.705625588,339.411251176,138.564063057,415.712978788,261.53393351" offset="0.5" variance="0.1,0.1,0.2,0.2" width="239.999997318,339.411251176,169.705625588,415.692189171,138.557133531,261.53393351"/>
			<input>
				<port id="0">
					<dim>1</dim>
					<dim>24</dim>
					<dim>2</dim>
					<dim>2</dim>
				</port>
				<port id="1">
					<dim>1</dim>
					<dim>3</dim>
					<dim>300</dim>
					<dim>300</dim>
				</port>
			</input>
			<output>
				<port id="2">
					<dim>1</dim>
					<dim>2</dim>
					<dim>96</dim>
				</port>
			</output>
		</layer>
		<layer id="209" name="PriorBoxClustered_5" precision="FP32" type="PriorBoxClustered">
			<data clip="0" flip="0" height="284.999996424,201.525430109,403.050860219,164.544824654,493.659161634,292.40382851" offset="0.5" variance="0.1,0.1,0.2,0.2" width="284.999996424,403.050860219,201.525430109,493.634473963,164.536595842,292.40382851"/>
			<input>
				<port id="0">
					<dim>1</dim>
					<dim>24</dim>
					<dim>1</dim>
					<dim>1</dim>
				</port>
				<port id="1">
					<dim>1</dim>
					<dim>3</dim>
					<dim>300</dim>
					<dim>300</dim>
				</port>
			</input>
			<output>
				<port id="2">
					<dim>1</dim>
					<dim>2</dim>
					<dim>24</dim>
				</port>
			</output>
		</layer>
		<layer id="210" name="ConcatPriorBoxesClustered" precision="FP32" type="Concat">
			<data axis="2"/>
			<input>
				<port id="0">
					<dim>1</dim>
					<dim>2</dim>
					<dim>4332</dim>
				</port>
				<port id="1">
					<dim>1</dim>
					<dim>2</dim>
					<dim>2400</dim>
				</port>
				<port id="2">
					<dim>1</dim>
					<dim>2</dim>
					<dim>600</dim>
				</port>
				<port id="3">
					<dim>1</dim>
					<dim>2</dim>
					<dim>216</dim>
				</port>
				<port id="4">
					<dim>1</dim>
					<dim>2</dim>
					<dim>96</dim>
				</port>
				<port id="5">
					<dim>1</dim>
					<dim>2</dim>
					<dim>24</dim>
				</port>
			</input>
			<output>
				<port id="6">
					<dim>1</dim>
					<dim>2</dim>
					<dim>7668</dim>
				</port>
			</output>
		</layer>
		<layer id="211" name="DetectionOutput" precision="FP32" type="DetectionOutput">
			<data code_type="caffe.PriorBoxParameter.CENTER_SIZE" confidence_threshold="0.300000011921" input_height="1" input_width="1" keep_top_k="100" nms_threshold="0.600000023842" normalized="1" num_classes="91" pad_mode="caffe.ResizeParameter.CONSTANT" resize_mode="caffe.ResizeParameter.WARP" share_location="1" top_k="100" variance_encoded_in_target="0"/>
			<input>
				<port id="0">
					<dim>1</dim>
					<dim>7668</dim>
				</port>
				<port id="1">
					<dim>1</dim>
					<dim>174447</dim>
				</port>
				<port id="2">
					<dim>1</dim>
					<dim>2</dim>
					<dim>7668</dim>
				</port>
			</input>
			<output>
				<port id="3">
					<dim>1</dim>
					<dim>1</dim>
					<dim>100</dim>
					<dim>7</dim>
				</port>
			</output>
		</layer>
	</layers>
	<edges>
		<edge from-layer="0" from-port="0" to-layer="1" to-port="0"/>
		<edge from-layer="1" from-port="1" to-layer="2" to-port="0"/>
		<edge from-layer="2" from-port="3" to-layer="3" to-port="0"/>
		<edge from-layer="3" from-port="1" to-layer="4" to-port="0"/>
		<edge from-layer="4" from-port="3" to-layer="5" to-port="0"/>
		<edge from-layer="5" from-port="1" to-layer="6" to-port="0"/>
		<edge from-layer="6" from-port="3" to-layer="7" to-port="0"/>
		<edge from-layer="7" from-port="3" to-layer="8" to-port="0"/>
		<edge from-layer="8" from-port="1" to-layer="9" to-port="0"/>
		<edge from-layer="9" from-port="3" to-layer="10" to-port="0"/>
		<edge from-layer="10" from-port="1" to-layer="11" to-port="0"/>
		<edge from-layer="11" from-port="3" to-layer="12" to-port="0"/>
		<edge from-layer="12" from-port="3" to-layer="13" to-port="0"/>
		<edge from-layer="13" from-port="1" to-layer="14" to-port="0"/>
		<edge from-layer="14" from-port="3" to-layer="15" to-port="0"/>
		<edge from-layer="15" from-port="1" to-layer="16" to-port="0"/>
		<edge from-layer="16" from-port="3" to-layer="17" to-port="0"/>
		<edge from-layer="11" from-port="3" to-layer="17" to-port="1"/>
		<edge from-layer="17" from-port="2" to-layer="18" to-port="0"/>
		<edge from-layer="18" from-port="3" to-layer="19" to-port="0"/>
		<edge from-layer="19" from-port="1" to-layer="20" to-port="0"/>
		<edge from-layer="20" from-port="3" to-layer="21" to-port="0"/>
		<edge from-layer="21" from-port="1" to-layer="22" to-port="0"/>
		<edge from-layer="22" from-port="3" to-layer="23" to-port="0"/>
		<edge from-layer="23" from-port="3" to-layer="24" to-port="0"/>
		<edge from-layer="24" from-port="1" to-layer="25" to-port="0"/>
		<edge from-layer="25" from-port="3" to-layer="26" to-port="0"/>
		<edge from-layer="26" from-port="1" to-layer="27" to-port="0"/>
		<edge from-layer="27" from-port="3" to-layer="28" to-port="0"/>
		<edge from-layer="22" from-port="3" to-layer="28" to-port="1"/>
		<edge from-layer="28" from-port="2" to-layer="29" to-port="0"/>
		<edge from-layer="29" from-port="3" to-layer="30" to-port="0"/>
		<edge from-layer="30" from-port="1" to-layer="31" to-port="0"/>
		<edge from-layer="31" from-port="3" to-layer="32" to-port="0"/>
		<edge from-layer="32" from-port="1" to-layer="33" to-port="0"/>
		<edge from-layer="33" from-port="3" to-layer="34" to-port="0"/>
		<edge from-layer="28" from-port="2" to-layer="34" to-port="1"/>
		<edge from-layer="34" from-port="2" to-layer="35" to-port="0"/>
		<edge from-layer="35" from-port="3" to-layer="36" to-port="0"/>
		<edge from-layer="36" from-port="1" to-layer="37" to-port="0"/>
		<edge from-layer="37" from-port="3" to-layer="38" to-port="0"/>
		<edge from-layer="38" from-port="1" to-layer="39" to-port="0"/>
		<edge from-layer="39" from-port="3" to-layer="40" to-port="0"/>
		<edge from-layer="40" from-port="3" to-layer="41" to-port="0"/>
		<edge from-layer="41" from-port="1" to-layer="42" to-port="0"/>
		<edge from-layer="42" from-port="3" to-layer="43" to-port="0"/>
		<edge from-layer="43" from-port="1" to-layer="44" to-port="0"/>
		<edge from-layer="44" from-port="3" to-layer="45" to-port="0"/>
		<edge from-layer="39" from-port="3" to-layer="45" to-port="1"/>
		<edge from-layer="45" from-port="2" to-layer="46" to-port="0"/>
		<edge from-layer="46" from-port="3" to-layer="47" to-port="0"/>
		<edge from-layer="47" from-port="1" to-layer="48" to-port="0"/>
		<edge from-layer="48" from-port="3" to-layer="49" to-port="0"/>
		<edge from-layer="49" from-port="1" to-layer="50" to-port="0"/>
		<edge from-layer="50" from-port="3" to-layer="51" to-port="0"/>
		<edge from-layer="45" from-port="2" to-layer="51" to-port="1"/>
		<edge from-layer="51" from-port="2" to-layer="52" to-port="0"/>
		<edge from-layer="52" from-port="3" to-layer="53" to-port="0"/>
		<edge from-layer="53" from-port="1" to-layer="54" to-port="0"/>
		<edge from-layer="54" from-port="3" to-layer="55" to-port="0"/>
		<edge from-layer="55" from-port="1" to-layer="56" to-port="0"/>
		<edge from-layer="56" from-port="3" to-layer="57" to-port="0"/>
		<edge from-layer="51" from-port="2" to-layer="57" to-port="1"/>
		<edge from-layer="57" from-port="2" to-layer="58" to-port="0"/>
		<edge from-layer="58" from-port="3" to-layer="59" to-port="0"/>
		<edge from-layer="59" from-port="1" to-layer="60" to-port="0"/>
		<edge from-layer="60" from-port="3" to-layer="61" to-port="0"/>
		<edge from-layer="61" from-port="1" to-layer="62" to-port="0"/>
		<edge from-layer="62" from-port="3" to-layer="63" to-port="0"/>
		<edge from-layer="63" from-port="3" to-layer="64" to-port="0"/>
		<edge from-layer="64" from-port="1" to-layer="65" to-port="0"/>
		<edge from-layer="65" from-port="3" to-layer="66" to-port="0"/>
		<edge from-layer="66" from-port="1" to-layer="67" to-port="0"/>
		<edge from-layer="67" from-port="3" to-layer="68" to-port="0"/>
		<edge from-layer="62" from-port="3" to-layer="68" to-port="1"/>
		<edge from-layer="68" from-port="2" to-layer="69" to-port="0"/>
		<edge from-layer="69" from-port="3" to-layer="70" to-port="0"/>
		<edge from-layer="70" from-port="1" to-layer="71" to-port="0"/>
		<edge from-layer="71" from-port="3" to-layer="72" to-port="0"/>
		<edge from-layer="72" from-port="1" to-layer="73" to-port="0"/>
		<edge from-layer="73" from-port="3" to-layer="74" to-port="0"/>
		<edge from-layer="68" from-port="2" to-layer="74" to-port="1"/>
		<edge from-layer="74" from-port="2" to-layer="75" to-port="0"/>
		<edge from-layer="75" from-port="3" to-layer="76" to-port="0"/>
		<edge from-layer="76" from-port="1" to-layer="77" to-port="0"/>
		<edge from-layer="77" from-port="3" to-layer="78" to-port="0"/>
		<edge from-layer="78" from-port="1" to-layer="79" to-port="0"/>
		<edge from-layer="79" from-port="3" to-layer="80" to-port="0"/>
		<edge from-layer="80" from-port="1" to-layer="82" to-port="0"/>
		<edge from-layer="81" from-port="1" to-layer="82" to-port="1"/>
		<edge from-layer="76" from-port="1" to-layer="83" to-port="0"/>
		<edge from-layer="83" from-port="3" to-layer="84" to-port="0"/>
		<edge from-layer="84" from-port="1" to-layer="85" to-port="0"/>
		<edge from-layer="85" from-port="3" to-layer="86" to-port="0"/>
		<edge from-layer="86" from-port="3" to-layer="87" to-port="0"/>
		<edge from-layer="87" from-port="1" to-layer="88" to-port="0"/>
		<edge from-layer="88" from-port="3" to-layer="89" to-port="0"/>
		<edge from-layer="89" from-port="1" to-layer="90" to-port="0"/>
		<edge from-layer="90" from-port="3" to-layer="91" to-port="0"/>
		<edge from-layer="85" from-port="3" to-layer="91" to-port="1"/>
		<edge from-layer="91" from-port="2" to-layer="92" to-port="0"/>
		<edge from-layer="92" from-port="3" to-layer="93" to-port="0"/>
		<edge from-layer="93" from-port="1" to-layer="94" to-port="0"/>
		<edge from-layer="94" from-port="3" to-layer="95" to-port="0"/>
		<edge from-layer="95" from-port="1" to-layer="96" to-port="0"/>
		<edge from-layer="96" from-port="3" to-layer="97" to-port="0"/>
		<edge from-layer="91" from-port="2" to-layer="97" to-port="1"/>
		<edge from-layer="97" from-port="2" to-layer="98" to-port="0"/>
		<edge from-layer="98" from-port="3" to-layer="99" to-port="0"/>
		<edge from-layer="99" from-port="1" to-layer="100" to-port="0"/>
		<edge from-layer="100" from-port="3" to-layer="101" to-port="0"/>
		<edge from-layer="101" from-port="1" to-layer="102" to-port="0"/>
		<edge from-layer="102" from-port="3" to-layer="103" to-port="0"/>
		<edge from-layer="103" from-port="3" to-layer="104" to-port="0"/>
		<edge from-layer="104" from-port="1" to-layer="105" to-port="0"/>
		<edge from-layer="105" from-port="3" to-layer="106" to-port="0"/>
		<edge from-layer="106" from-port="1" to-layer="107" to-port="0"/>
		<edge from-layer="107" from-port="3" to-layer="108" to-port="0"/>
		<edge from-layer="108" from-port="1" to-layer="110" to-port="0"/>
		<edge from-layer="109" from-port="1" to-layer="110" to-port="1"/>
		<edge from-layer="104" from-port="1" to-layer="111" to-port="0"/>
		<edge from-layer="111" from-port="3" to-layer="112" to-port="0"/>
		<edge from-layer="112" from-port="1" to-layer="113" to-port="0"/>
		<edge from-layer="113" from-port="3" to-layer="114" to-port="0"/>
		<edge from-layer="114" from-port="1" to-layer="115" to-port="0"/>
		<edge from-layer="115" from-port="3" to-layer="116" to-port="0"/>
		<edge from-layer="116" from-port="1" to-layer="117" to-port="0"/>
		<edge from-layer="117" from-port="3" to-layer="118" to-port="0"/>
		<edge from-layer="118" from-port="1" to-layer="119" to-port="0"/>
		<edge from-layer="119" from-port="3" to-layer="120" to-port="0"/>
		<edge from-layer="120" from-port="1" to-layer="122" to-port="0"/>
		<edge from-layer="121" from-port="1" to-layer="122" to-port="1"/>
		<edge from-layer="116" from-port="1" to-layer="123" to-port="0"/>
		<edge from-layer="123" from-port="3" to-layer="124" to-port="0"/>
		<edge from-layer="124" from-port="1" to-layer="125" to-port="0"/>
		<edge from-layer="125" from-port="3" to-layer="126" to-port="0"/>
		<edge from-layer="126" from-port="1" to-layer="127" to-port="0"/>
		<edge from-layer="127" from-port="3" to-layer="128" to-port="0"/>
		<edge from-layer="128" from-port="1" to-layer="129" to-port="0"/>
		<edge from-layer="129" from-port="3" to-layer="130" to-port="0"/>
		<edge from-layer="130" from-port="1" to-layer="131" to-port="0"/>
		<edge from-layer="131" from-port="3" to-layer="132" to-port="0"/>
		<edge from-layer="132" from-port="1" to-layer="134" to-port="0"/>
		<edge from-layer="133" from-port="1" to-layer="134" to-port="1"/>
		<edge from-layer="128" from-port="1" to-layer="135" to-port="0"/>
		<edge from-layer="135" from-port="3" to-layer="136" to-port="0"/>
		<edge from-layer="136" from-port="1" to-layer="137" to-port="0"/>
		<edge from-layer="137" from-port="3" to-layer="138" to-port="0"/>
		<edge from-layer="138" from-port="1" to-layer="139" to-port="0"/>
		<edge from-layer="139" from-port="3" to-layer="140" to-port="0"/>
		<edge from-layer="140" from-port="1" to-layer="141" to-port="0"/>
		<edge from-layer="141" from-port="3" to-layer="142" to-port="0"/>
		<edge from-layer="142" from-port="1" to-layer="143" to-port="0"/>
		<edge from-layer="143" from-port="3" to-layer="144" to-port="0"/>
		<edge from-layer="144" from-port="1" to-layer="146" to-port="0"/>
		<edge from-layer="145" from-port="1" to-layer="146" to-port="1"/>
		<edge from-layer="140" from-port="1" to-layer="147" to-port="0"/>
		<edge from-layer="147" from-port="3" to-layer="148" to-port="0"/>
		<edge from-layer="148" from-port="1" to-layer="149" to-port="0"/>
		<edge from-layer="149" from-port="3" to-layer="150" to-port="0"/>
		<edge from-layer="150" from-port="1" to-layer="151" to-port="0"/>
		<edge from-layer="151" from-port="3" to-layer="152" to-port="0"/>
		<edge from-layer="152" from-port="1" to-layer="153" to-port="0"/>
		<edge from-layer="153" from-port="3" to-layer="154" to-port="0"/>
		<edge from-layer="154" from-port="1" to-layer="155" to-port="0"/>
		<edge from-layer="155" from-port="3" to-layer="156" to-port="0"/>
		<edge from-layer="156" from-port="1" to-layer="158" to-port="0"/>
		<edge from-layer="157" from-port="1" to-layer="158" to-port="1"/>
		<edge from-layer="82" from-port="2" to-layer="159" to-port="0"/>
		<edge from-layer="110" from-port="2" to-layer="159" to-port="1"/>
		<edge from-layer="122" from-port="2" to-layer="159" to-port="2"/>
		<edge from-layer="134" from-port="2" to-layer="159" to-port="3"/>
		<edge from-layer="146" from-port="2" to-layer="159" to-port="4"/>
		<edge from-layer="158" from-port="2" to-layer="159" to-port="5"/>
		<edge from-layer="159" from-port="6" to-layer="161" to-port="0"/>
		<edge from-layer="160" from-port="1" to-layer="161" to-port="1"/>
		<edge from-layer="76" from-port="1" to-layer="162" to-port="0"/>
		<edge from-layer="162" from-port="3" to-layer="163" to-port="0"/>
		<edge from-layer="163" from-port="1" to-layer="164" to-port="0"/>
		<edge from-layer="164" from-port="3" to-layer="165" to-port="0"/>
		<edge from-layer="165" from-port="1" to-layer="167" to-port="0"/>
		<edge from-layer="166" from-port="1" to-layer="167" to-port="1"/>
		<edge from-layer="104" from-port="1" to-layer="168" to-port="0"/>
		<edge from-layer="168" from-port="3" to-layer="169" to-port="0"/>
		<edge from-layer="169" from-port="1" to-layer="170" to-port="0"/>
		<edge from-layer="170" from-port="3" to-layer="171" to-port="0"/>
		<edge from-layer="171" from-port="1" to-layer="173" to-port="0"/>
		<edge from-layer="172" from-port="1" to-layer="173" to-port="1"/>
		<edge from-layer="116" from-port="1" to-layer="174" to-port="0"/>
		<edge from-layer="174" from-port="3" to-layer="175" to-port="0"/>
		<edge from-layer="175" from-port="1" to-layer="176" to-port="0"/>
		<edge from-layer="176" from-port="3" to-layer="177" to-port="0"/>
		<edge from-layer="177" from-port="1" to-layer="179" to-port="0"/>
		<edge from-layer="178" from-port="1" to-layer="179" to-port="1"/>
		<edge from-layer="128" from-port="1" to-layer="180" to-port="0"/>
		<edge from-layer="180" from-port="3" to-layer="181" to-port="0"/>
		<edge from-layer="181" from-port="1" to-layer="182" to-port="0"/>
		<edge from-layer="182" from-port="3" to-layer="183" to-port="0"/>
		<edge from-layer="183" from-port="1" to-layer="185" to-port="0"/>
		<edge from-layer="184" from-port="1" to-layer="185" to-port="1"/>
		<edge from-layer="140" from-port="1" to-layer="186" to-port="0"/>
		<edge from-layer="186" from-port="3" to-layer="187" to-port="0"/>
		<edge from-layer="187" from-port="1" to-layer="188" to-port="0"/>
		<edge from-layer="188" from-port="3" to-layer="189" to-port="0"/>
		<edge from-layer="189" from-port="1" to-layer="191" to-port="0"/>
		<edge from-layer="190" from-port="1" to-layer="191" to-port="1"/>
		<edge from-layer="152" from-port="1" to-layer="192" to-port="0"/>
		<edge from-layer="192" from-port="3" to-layer="193" to-port="0"/>
		<edge from-layer="193" from-port="1" to-layer="194" to-port="0"/>
		<edge from-layer="194" from-port="3" to-layer="195" to-port="0"/>
		<edge from-layer="195" from-port="1" to-layer="197" to-port="0"/>
		<edge from-layer="196" from-port="1" to-layer="197" to-port="1"/>
		<edge from-layer="167" from-port="2" to-layer="198" to-port="0"/>
		<edge from-layer="173" from-port="2" to-layer="198" to-port="1"/>
		<edge from-layer="179" from-port="2" to-layer="198" to-port="2"/>
		<edge from-layer="185" from-port="2" to-layer="198" to-port="3"/>
		<edge from-layer="191" from-port="2" to-layer="198" to-port="4"/>
		<edge from-layer="197" from-port="2" to-layer="198" to-port="5"/>
		<edge from-layer="198" from-port="6" to-layer="200" to-port="0"/>
		<edge from-layer="199" from-port="1" to-layer="200" to-port="1"/>
		<edge from-layer="200" from-port="2" to-layer="201" to-port="0"/>
		<edge from-layer="201" from-port="1" to-layer="203" to-port="0"/>
		<edge from-layer="202" from-port="1" to-layer="203" to-port="1"/>
		<edge from-layer="79" from-port="3" to-layer="204" to-port="0"/>
		<edge from-layer="0" from-port="0" to-layer="204" to-port="1"/>
		<edge from-layer="107" from-port="3" to-layer="205" to-port="0"/>
		<edge from-layer="0" from-port="0" to-layer="205" to-port="1"/>
		<edge from-layer="119" from-port="3" to-layer="206" to-port="0"/>
		<edge from-layer="0" from-port="0" to-layer="206" to-port="1"/>
		<edge from-layer="131" from-port="3" to-layer="207" to-port="0"/>
		<edge from-layer="0" from-port="0" to-layer="207" to-port="1"/>
		<edge from-layer="143" from-port="3" to-layer="208" to-port="0"/>
		<edge from-layer="0" from-port="0" to-layer="208" to-port="1"/>
		<edge from-layer="155" from-port="3" to-layer="209" to-port="0"/>
		<edge from-layer="0" from-port="0" to-layer="209" to-port="1"/>
		<edge from-layer="204" from-port="2" to-layer="210" to-port="0"/>
		<edge from-layer="205" from-port="2" to-layer="210" to-port="1"/>
		<edge from-layer="206" from-port="2" to-layer="210" to-port="2"/>
		<edge from-layer="207" from-port="2" to-layer="210" to-port="3"/>
		<edge from-layer="208" from-port="2" to-layer="210" to-port="4"/>
		<edge from-layer="209" from-port="2" to-layer="210" to-port="5"/>
		<edge from-layer="161" from-port="2" to-layer="211" to-port="0"/>
		<edge from-layer="203" from-port="2" to-layer="211" to-port="1"/>
		<edge from-layer="210" from-port="6" to-layer="211" to-port="2"/>
	</edges>
	<meta_data>
		<MO_version value="2019.3.0-408-gac8584cb7"/>
		<cli_parameters>
			<blobs_as_inputs value="False"/>
			<data_type value="float"/>
			<disable_nhwc_to_nchw value="False"/>
			<disable_resnet_optimization value="False"/>
			<enable_concat_optimization value="False"/>
			<extensions value="DIR"/>
			<framework value="tf"/>
			<freeze_placeholder_with_value value="{}"/>
			<generate_experimental_IR_V10 value="False"/>
			<input_model value="DIR/frozen_inference_graph.pb"/>
			<input_model_is_text value="False"/>
			<keep_quantize_ops_in_IR value="False"/>
			<keep_shape_ops value="False"/>
			<log_level value="ERROR"/>
			<mean_scale_values value="{}"/>
			<mean_values value="()"/>
			<move_to_preprocess value="False"/>
			<output_dir value="DIR"/>
			<reverse_input_channels value="True"/>
			<scale_values value="()"/>
			<silent value="False"/>
			<steps value="False"/>
			<tensorflow_object_detection_api_pipeline_config value="DIR/pipeline.config"/>
			<tensorflow_use_custom_operations_config value="DIR/ssd_v2_support.json"/>
			<version value="False"/>
			<unset unset_cli_parameters="batch, disable_fusing, disable_gfusing, finegrain_fusing, generate_deprecated_IR_V2, input, input_checkpoint, input_meta_graph, input_shape, model_name, output, placeholder_shapes, saved_model_dir, saved_model_tags, scale, tensorboard_logdir, tensorflow_custom_layer_libraries, tensorflow_custom_operations_config_update, tensorflow_operation_patterns, tensorflow_subgraph_patterns"/>
		</cli_parameters>
	</meta_data>
</net>
